models/model_deep_c2_y1_p[[0.0, 0.3], [0.7, 1.0]]_b32_lr0.001_d0.5_e500_tech.pth (torch, 7241 bytes, 10 tensors)

linear_stack.0.weight f4 [16, 8]
0.27205256 -0.3237435 0.30758137 -0.1814389 -0.5519685 -0.3534351 0.119832166 0.7667326
-0.41104567 1.3483586 -0.40044853 0.36529374 1.9517326 0.24325219 -0.26820093 0.1602127
1.6106325 -0.91794217 -0.18100992 -0.39325538 0.25623235 -0.032516308 1.6229752 0.26439703
-1.3261929 -1.5499957 0.06347519 -0.29775178 -0.47446877 -0.13869058 0.092621356 -0.3095169
0.2643259 -0.14931339 -0.2525126 -0.18040279 -0.2419433 0.4163156 -0.039657984 0.9758516
-0.41298485 1.7170829 -0.15284069 -0.1922012 0.76975334 0.44089836 -0.6003711 -0.60125595
0.81512845 1.0673891 -0.5767905 -0.3013047 1.1259991 0.68815845 -0.09491528 0.31261364
-0.9141324 -1.30386 0.6126455 0.014060707 -0.29859787 -0.35025448 -0.0105507225 -0.2498833
-1.0759546 2.1327133 -0.7667741 -0.34467885 -0.34332874 0.98787665 -0.30052418 0.15718535
-0.40697226 1.6142328 -0.11584107 -0.8440437 -0.1601609 1.0737159 -0.42365247 -0.38245836
0.7947457 0.49575105 -0.9873377 0.7346567 1.5802877 0.14603911 -0.31142962 0.051011056
-0.041858576 0.55573356 0.631752 -0.42907763 0.5632768 -0.9788758 -0.9531889 -1.0500386
0.5958267 0.42582154 -0.31239453 -0.2633441 1.151804 0.09036081 -0.39198056 -0.59241
0.669171 0.38396144 -0.16426627 0.3408055 1.3643959 -0.013806553 -0.7668559 0.14483269
-0.8983781 0.67693406 0.021397507 -0.010193874 -1.1685013 0.35697514 0.52904236 -0.4549337
0.33101973 -0.0046447883 -0.68296725 -0.18126558 -0.043786008 0.4124569 0.06392533 1.1177238
00000000: 794a 8b3e b5c1 a5be 4e7b 9d3e 1ecb 39be
00000010: cf4d 0dbf 72f5 b4be 916a f53d 9648 443f
00000020: 9474 d2be 0497 ac3f 9707 cdbe c807 bb3e
00000030: 60d2 f93f 1a17 793e a251 89be cc0e 243e
00000040: 3529 ce3f 42fe 6abf aa5a 39be c558 c9be
00000050: e330 833e d22f 05bd a7bd cf3f 0c5f 873e
00000060: b0c0 a9bf 4266 c6bf 48ff 813d ec72 98be
00000070: 92ed f2be e704 0ebe 44b0 bd3d 0079 9ebe
00000080: b955 873e 9ce5 18be 5549 81be 82bb 38be
00000090: fcbf 77be 5127 d53e 6970 22bd 69d1 793f
000000a0: c072 d3be 5fc9 db3f 4582 1cbe 64d0 44be
000000b0: 8e0e 453f 6ebd e13e ecb1 19bf e9eb 19bf
000000c0: 42ac 503f 35a0 883f 8ba8 13bf 9c44 9abe
000000d0: bd20 903f 272b 303f f162 c2bd e50e a03e
000000e0: 9504 6abf e2e4 a6bf 56d6 1c3f e15e 663c
000000f0: d2e1 98be 8e54 b3be f0dc 2cbc 68e1 7fbe
00000100: e1b8 89bf 607e 0840 4f4b 44bf bf79 b0be
00000110: c9c8 afbe 7ce5 7c3f 4ede 99be 32f5 203e
00000120: ab5e d0be 2e9f ce3f 153e edbd 3f13 58bf
00000130: 3801 24be 866f 893f fae8 d8be 95d1 c3be
00000140: 7474 4b3f 15d3 fd3e 2ac2 7cbf 7612 3c3f
00000150: de46 ca3f 478b 153e b473 9fbe f8f0 503d
00000160: e673 2bbd 8e44 0e3f 80ba 213f 10b0 dbbe
00000170: e932 103f 9b97 7abf 3004 74bf aa67 86bf
00000180: 1988 183f 4805 da3e 2df2 9fbe 0ad5 86be
00000190: 506e 933f 170f b93d adb1 c8be 2fa8 17bf
000001a0: ca4e 2b3f 9896 c43e 6b35 28be 0f7e ae3e
000001b0: 86a4 ae3f e134 62bc ab50 44bf 054f 143e
000001c0: 1bfc 65bf 8d4b 2d3f d349 af3c 3504 27bc
000001d0: 7391 95bf 72c5 b63e 526f 073f 12ed e8be
000001e0: 6b7b a93e 4f33 98bb f1d6 2ebf af9d 39be
000001f0: f558 33bd 8d2d d33e 49eb 823d 9311 8f3f

linear_stack.0.bias f4 [16]
-3.567547 -0.10206165 -1.3029331 -1.3366631 -2.6340456 -0.5495801 -0.8336157 -1.311583
-0.36401632 -1.3433477 -0.7936706 -2.8039663 -1.2392486 -0.7874296 -2.625375 -2.6190734
00000000: b152 64c0 b305 d1bd 83c6 a6bf c717 abbf
00000010: 3494 28c0 48b1 0cbf d767 55bf f4e1 a7bf
00000020: 5960 babe d1f2 abbf ff2d 4bbf 2f74 33c0
00000030: b39f 9ebf fc94 49bf 2506 28c0 e69e 27c0

linear_stack.3.weight f4 [16, 16]
1.258203 0.06612161 0.46637905 -0.51614726 3.6086204 0.19828182 -0.38421184 0.3289649
-0.050967757 -0.23844478 0.03691979 1.5653383 -0.41696638 0.20884296 0.28392568 2.983191
4.9545865 -0.1479029 0.6928626 1.1775092 2.0618715 -0.017443601 0.1468366 2.18461
0.35869586 -0.02109631 -0.043823697 1.7284874 0.039142076 -0.055830486 1.7984979 1.5643044
8.672262 -0.048954196 -0.0424355 -0.18826388 2.0854883 0.012954585 0.37604806 -0.021147626
-0.11286127 0.016945597 -0.20925136 1.896027 0.11055057 -0.03690109 0.5700388 1.5129153
8.497818 -0.0021172245 0.04774958 -0.64045084 3.1892698 0.07528182 0.14827655 -0.33416438
0.294759 0.17709158 0.16322264 2.1695552 0.20760216 0.27375323 1.6000277 1.1127958
4.7399087 0.0019732146 0.18530852 0.06554183 2.442803 -0.21717404 0.19677669 -0.42827782
0.011329031 0.37221217 -0.020535978 2.137424 0.51788074 0.084479086 1.396329 3.073752
-3.1217883 -2.2501836 -1.3723229 0.90466434 -3.4842756 -0.50613177 -0.5236126 1.2071357
-1.9651642 -2.2952514 -2.1092424 -1.7341268 -1.5104938 -1.2579646 -2.4959319 -2.5291293
-4.0266995 -1.3982842 -1.2944267 1.0981561 -3.2220805 -1.9500117 -2.0114887 0.62452763
-0.47653127 -0.98000294 -0.9842871 -1.3295733 -1.5482943 -1.6560444 -1.6873251 -2.523725
-0.30742377 -0.34542212 -0.15981096 -0.28546345 -0.1805358 -0.33472508 -0.075189516 -0.021129394
-0.4174002 -0.3780297 -0.41341448 -0.16885653 -0.34238395 0.0042097964 -0.32733637 -0.12174599
-3.6258526 -1.082053 -2.612508 1.1287303 -2.1950378 -0.259684 -0.40271336 1.1475309
-0.31530213 -1.7781767 -1.1364877 -1.6560936 -0.61494637 -3.0310876 -1.256376 -2.6824641
-3.33836 -0.72973114 -2.073174 0.25133607 -3.0500448 -2.0305352 -2.158987 1.1732361
-0.8261284 -1.5043675 -0.66653454 -1.093032 -3.1659217 -0.5797138 -2.4358435 -2.2637255
8.1591015 -0.18607266 0.006916599 0.11710127 2.465845 -0.08996973 -0.0405022 0.015143069
-0.1140373 0.32762295 0.40359876 2.0694027 0.07812881 -0.2752368 1.2278941 1.990812
-2.6766467 -2.296184 -2.5885215 0.7141 -3.7958944 -3.6219456 -0.68891317 1.1610007
-3.5127316 -0.45111412 -1.7486074 -2.1747067 -2.8667352 -1.9565523 -1.8981134 -3.4334018
8.160711 0.07933465 -0.10138253 0.19204032 1.723268 0.039115842 -0.31874254 -0.2805595
0.12225748 0.011279709 -0.28350517 1.1006209 0.42350066 -0.126402 0.73344743 3.3241296
4.587673 -0.0035958947 0.57519466 0.24342006 3.2030804 0.50216633 0.0443782 0.1226484
0.20680164 -0.17513545 0.12590812 1.8363779 -0.33610767 0.039219964 1.330341 0.049544897
-3.0558116 -1.3624429 -1.1026418 0.9042206 -3.7652411 -0.6865259 -1.0281662 0.49417216
-1.9266932 -1.4030743 -1.5875133 -1.9726313 -1.2455151 -1.5849804 -1.4150596 -2.6985373
7.014952 0.10235969 -0.20170338 -0.6135778 3.301074 0.35194296 0.08195131 -0.44832113
-0.12999353 0.19720094 0.070442446 1.501439 0.21776062 0.15842813 0.88477826 2.2958019
00000000: cc0c a13f c46a 873d 3cc9 ee3e 3a22 04bf
00000010: a3f3 6640 640a 4b3e 6ab7 c4be 166e a83e
00000020: 91c3 50bd de2a 74be 3539 173d 015d c83f
00000030: 9e7c d5be eeda 553e b55e 913e 9aec 3e40
00000040: f98b 9e40 dc73 17be 715f 313f 9fb8 963f
00000050: b4f5 0340 e2e5 8ebc 555c 163e a6d0 0b40
00000060: fca6 b73e 2bd2 acbc 7a80 33bd 133f dd3f
00000070: 7153 203d 82ae 64bd 2e35 e63f 203b c83f
00000080: 96c1 0a41 3284 48bd d9d0 2dbd 3fc8 40be
00000090: a478 0540 783f 543c 5f89 c03e c93d adbc
000000a0: cf23 e7bd 7ed1 8a3c fd45 56be 03b1 f23f
000000b0: 5668 e23d 9925 17bd 10ee 113f 35a7 c13f
000000c0: 10f7 0741 22c1 0abb 1095 433d 96f4 23bf
000000d0: ff1c 4c40 5b2d 9a3d cfd5 173e 9817 abbe
000000e0: a7ea 963e 7f57 353e d623 273e fed9 0a40
000000f0: a995 543e 6229 8c3e b5cd cc3f 1870 8e3f
00000100: 55ad 9740 0c51 013b 84c1 3d3e cc3a 863d
00000110: e256 1c40 df62 5ebe d47f 493e 3b47 dbbe
00000120: 669d 393c 9892 be3e 113b a8bc 8ecb 0840
00000130: d593 043f 5f03 ad3d e9ba b23f 5ab8 4440
00000140: 61cb 47c0 0203 10c0 47a8 afbf 1598 673f
00000150: 5ffe 5ec0 da91 01bf 7a0b 06bf 6c83 9a3f
00000160: 808a fbbf 66e5 12c0 d4fd 06c0 def7 ddbf
00000170: dc57 c1bf fc04 a1bf 59bd 1fc0 41dd 21c0
00000180: b9da 80c0 fafa b2bf c6af a5bf 6190 8c3f
00000190: 9136 4ec0 fc99 f9bf 3bbc 00c0 0be1 1f3f
000001a0: e8fb f3be 79e1 7abf 3dfa 7bbf 752f aabf
000001b0: 822e c6bf 43f9 d3bf 45fa d7bf b684 21c0
000001c0: a666 9dbe 2bdb b0be 7ca5 23be 4428 92be
000001d0: 60de 38be 1661 abbe f6fc 99bd 8d17 adbc
000001e0: 7bb5 d5be 1c8d c1be 10ab d3be bae8 2cbe
000001f0: f34c afbe 55f2 893b a298 a7be f655 f9bd
00000200: f80d 68c0 b680 8abf 5533 27c0 3c7a 903f
00000210: 807b 0cc0 4df5 84be 7230 cebe 4be2 923f
00000220: 486f a1be 4b9b e3bf 6e78 91bf e0fa d3bf
00000230: 206d 1dbf 57fd 41c0 eed0 a0bf 7ead 2bc0
00000240: b1a7 55c0 a9cf 3abf e2ae 04c0 1faf 803e
00000250: ef33 43c0 4af4 01c0 d82c 0ac0 9a2c 963f
00000260: 277d 53bf 1d8f c0bf 02a2 2abf 79e8 8bbf
00000270: 769e 4ac0 2068 14bf dce4 1bc0 e1e0 10c0
00000280: ae8b 0241 d589 3ebe a3a4 e23b cad2 ef3d
00000290: 68d0 1d40 0d42 b8bd a3e5 25bd a31a 783c
000002a0: 638c e9bd 32be a73e 7fa4 ce3e 1871 0440
000002b0: ff01 a03d d6eb 8cbe a22b 9d3f edd2 fe3f
000002c0: 2e4e 2bc0 aef4 12c0 56aa 25c0 42cf 363f
000002d0: efef 72c0 f5cd 67c0 9d5c 30bf ac9b 943f
000002e0: 98d0 60c0 6ef8 e6be 5ed2 dfbf 652e 0bc0
000002f0: 9778 37c0 4e70 fabf 61f5 f2bf dbbc 5bc0
00000300: 4692 0241 347a a23d a5a1 cfbd 38a6 443e
00000310: 0c94 dc3f ef37 203d 3932 a3be 7fa5 8fbe
00000320: 2162 fa3d 87ce 383c 9727 91be 25e1 8c3f
00000330: 14d5 d83e 876f 01be 36c3 3b3f 8abe 5440
00000340: 38ce 9240 1aa9 6bbb f53f 133f 1c43 793e
00000350: 45ff 4c40 f98d 003f eac5 353d 162f fb3d
00000360: cfc3 533e b556 33be 0fee 003e 6e0e eb3f
00000370: 4e16 acbe 1da5 203d 9d48 aa3f 97ef 4a3d
00000380: 6b92 43c0 8764 aebf 5e23 8dbf 007b 673f
00000390: b6f9 70c0 29c0 2fbf f39a 83bf 2204 fd3e
000003a0: e29d f6bf f097 b3bf a333 cbbf 2f7f fcbf
000003b0: 0a6d 9fbf a3e0 cabf ac20 b5bf d6b4 2cc0
000003c0: 7d7a e040 f5a1 d13d 558b 4ebe 6f13 1dbf
000003d0: cc44 5340 de31 b43e 17d6 a73d 598a e5be
000003e0: 061d 05be 0bef 493e 2144 903d 272f c03f
000003f0: a4fc 5e3e fc3a 223e d480 623f 6bee 1240

linear_stack.3.bias f4 [16]
-0.55627495 -10.897027 -0.28467396 -0.61308074 -0.23260055 0.3650007 1.0558826 -0.3242201
0.62550986 0.27683935 -0.47363168 0.21862525 -0.40369833 -1.2310296 0.31900686 -0.2830587
00000000: 0968 0ebf 395a 2ec1 c9c0 91be dcf2 1cbf
00000010: d72e 6ebe 5fe1 ba3e 2927 873f 2d00 a6be
00000020: 6a21 203f e3bd 8d3e da7f f2be 4cdf 5f3e
00000030: 8cb1 cebe 6192 9dbf de54 a33e 12ed 90be

linear_stack.6.weight f4 [16, 16]
-1.2422159 -0.10252137 -1.186787 -1.0289098 -0.5546967 0.1439732 0.06051576 0.4109649
0.07623728 0.27283084 -0.97054297 0.18982689 -0.06500133 -0.77537346 0.15630318 -1.1866099
0.32414833 0.80368453 0.05692909 0.06519024 -0.0050567775 -2.5484424 -1.4958774 -0.08513188
-0.5242745 -1.7302945 -0.01966424 -2.5502632 0.057267252 -0.019862909 -2.360407 0.07516013
-0.36725795 0.7365921 0.08025043 -0.027050775 0.18477194 -1.4865853 -2.476904 -0.51271063
-1.686406 -2.3692453 0.12567744 -1.5940233 -0.028014265 0.044216886 -3.103436 -0.020576466
0.30358806 1.1048071 -0.22999457 -0.43873236 0.15759313 -1.0900142 -0.70447373 -0.016425373
-2.1635146 -1.9145478 0.18222009 -1.2957057 -0.05999633 0.16241054 -0.8996531 -0.16457582
-0.13245952 0.9469054 -0.37791556 0.08956619 0.10305883 -2.4744425 -1.6733193 -0.1673142
-2.4397004 -2.8267596 -0.047492318 -1.6042877 0.20550421 -0.17569768 -2.7548583 -0.04028322
0.059413694 1.023279 0.083603136 0.012822603 0.11533566 -0.6044581 -3.0230858 -0.1445702
-1.8569541 -2.2787874 -0.09777471 -1.798547 0.052463017 -0.08579304 -1.0292954 0.10819529
0.10820735 0.6433769 0.0016332387 -0.01907934 -0.025082732 -2.0300858 -0.25685045 0.025650946
-3.4644268 -1.2797275 0.16156836 -0.5828366 0.09914412 0.011195603 -1.666307 0.050803363
-0.11597154 1.3933567 0.12780507 -0.0509877 0.12165113 -1.487064 -1.7480631 -0.35762206
-1.572994 -1.4244505 0.1049729 -1.6569967 0.14591469 0.1530309 -1.9807373 0.044335917
-0.05371393 0.6195451 0.12278797 0.12985967 0.10588269 -0.57699174 -0.23030777 0.14328668
-1.1082991 -0.6365457 -0.13143228 -1.4117287 -0.3250028 0.078918174 -2.8268595 -0.025871735
-0.009206753 0.45448342 0.058235183 0.03176252 -0.0311571 -2.5419977 -2.4656754 -0.18700972
-2.2497554 -1.2594543 -0.17094764 -1.0400505 -0.014807234 0.15084608 -0.9900654 -0.004825683
0.025880128 0.86209244 0.057919372 0.1029912 -0.039743368 -0.6906919 -0.34446406 -0.024821298
-1.5203798 -0.30284393 0.082348 -1.5244371 -0.20495255 0.12390901 -1.577581 -0.017220698
-1.2174515 0.08156775 -0.85992634 -0.40537077 -1.0107931 0.13664931 0.13416554 0.14098042
0.104816936 0.15683405 -0.4064614 0.042423863 -1.0514513 -1.2056776 0.14594781 -1.4485493
0.14625268 0.6712309 0.11430914 0.020375416 0.14846869 -0.4393581 -0.14951679 0.030873494
-0.87374425 -1.2826518 -0.14484507 -1.5904642 0.11188637 0.08777893 -0.4064324 -0.34913135
-0.76895857 0.73214895 -0.35615277 -1.3374053 -1.6797587 0.09103283 0.10746104 0.13313596
0.040155433 0.4251282 -1.0519358 0.28241587 -1.0589731 -0.89464545 -0.019791016 -1.3242351
-0.43792745 -0.10511417 -0.14745969 -0.23120737 -0.02128274 -0.4345252 -0.5826702 -0.4263208
-0.6826005 -1.1974814 -0.4657701 -0.9678904 -0.07275658 -0.2683043 -0.6769496 0.004577084
0.026374457 0.57406867 0.1402015 0.11322599 -0.5257845 -0.18904023 -0.32530162 -0.089405395
-0.47873282 -1.5655475 0.083938025 -0.7241797 -0.046752892 -0.27627844 -0.118690945 0.10224183
00000000: ee00 9fbf b9f6 d1bd a3e8 97bf 51b3 83bf
00000010: 9a00 0ebf b66d 133e 60df 773d fe69 d23e
00000020: 4b22 9c3d 7cb0 8b3e 8175 78bf fb61 423e
00000030: 6b1f 85bd e07e 46bf f10d 203e d5e2 97bf
00000040: c5f6 a53e 45be 4d3f 7a2e 693d 7682 853d
00000050: 53b3 a5bb ae19 23c0 e978 bfbf a059 aebd
00000060: db36 06bf 4a7a ddbf e616 a1bc 8337 23c0
00000070: 1191 6a3d 8ab7 a2bc e910 17c0 8eed 993d
00000080: 3c09 bcbe 4d91 3c3f 565a a43d 9699 ddbc
00000090: db34 3d3e 6d48 bebf 9885 1ec0 0141 03bf
000000a0: 27dc d7bf b7a1 17c0 96b1 003e f508 ccbf
000000b0: 2c7e e5bc c41c 353d b29e 46c0 fa8f a8bc
000000c0: e56f 9b3e 526a 8d3f b283 6bbe 87a1 e0be
000000d0: 1860 213e 9685 8bbf 6458 34bf 818e 86bc
000000e0: 0677 0ac0 e70f f5bf e797 3a3e afd9 a5bf
000000f0: b6be 75bd f34e 263e aa4f 66bf 9086 28be
00000100: 78a3 07be 6468 723f 267e c1be 7b6e b73d
00000110: 8210 d33d 445d 1ec0 542f d6bf 6a54 2bbe
00000120: 0d24 1cc0 a1e9 34c0 4e87 42bd 4d59 cdbf
00000130: b26f 523e 18ea 33be 994f 30c0 0500 25bd
00000140: c65b 733d cefa 823f 1f38 ab3d e515 523c
00000150: 1a35 ec3d c4bd 1abf 3d7a 41c0 360a 14be
00000160: acb0 edbf a7d7 11c0 1b3e c8bd ca36 e6bf
00000170: 76e3 563d 43b4 afbd f4bf 83bf 7e95 dd3d
00000180: d19b dd3d 59b4 243f 6612 d63a 474c 9cbc
00000190: 4d7a cdbc edec 01c0 e781 83be ef21 d23c
000001a0: 2bb9 5dc0 1cce a3bf 2d72 253e c834 15bf
000001b0: 130c cb3d c36d 373c 8c49 d5bf 3017 503d
000001c0: 7d82 edbd 8359 b23f 55df 023e 7ad8 50bd
000001d0: 3a24 f93d 1d58 bebf 88c0 dfbf 3d1a b7be
000001e0: de57 c9bf 6554 b6bf 08fc d63d 7818 d4bf
000001f0: a96a 153e 22b4 1c3e cd88 fdbf 9499 353d
00000200: 2303 5cbd 829a 1e3f 4278 fb3d eff9 043e
00000210: 06d9 d83d bbb5 13bf cdd5 6bbe beb9 123e
00000220: bfdc 8dbf a9f4 22bf 2f96 06be 87b3 b4bf
00000230: c466 a6be da9f a13d 44eb 34c0 f6f0 d3bc
00000240: ecd7 16bc 0db2 e83e 0488 6e3d 6b19 023d
00000250: 2d3d ffbc 17b0 22c0 a0cd 1dc0 7a7f 3fbe
00000260: fefb 0fc0 cc35 a1bf e60c 2fbe 6020 85bf
00000270: 0a9a 72bc 6577 1a3e ed74 7dbf c320 9ebb
00000280: 9002 d43c 17b2 5c3f dd3c 6d3d 0ded d23d
00000290: f1c9 22bd 2fd1 30bf 985d b0be 0956 cbbc
000002a0: ce9b c2bf 5c0e 9bbe 11a6 a83d c120 c3bf
000002b0: 15df 51be 02c4 fd3d 2dee c9bf 6c12 8dbc
000002c0: 73d5 9bbf fe0c a73d 2224 5cbf c28c cfbe
000002d0: ab61 81bf cced 0b3e b162 093e 2c5d 103e
000002e0: 43aa d63d 1b99 203e b51b d0be a5c4 2d3d
000002f0: f595 86bf a553 9abf 5873 153e 106a b9bf
00000300: 43c3 153e cad5 2b3f e91a ea3d 58ea a63c
00000310: 2d08 183e 8bf3 e0be ee1a 19be 69ea fc3c
00000320: b4ad 5fbf ef2d a4bf 4452 14be 5594 cbbf
00000330: ae24 e53d 71c5 b33d e817 d0be 58c1 b2be
00000340: 78da 44bf 1d6e 3b3f a859 b6be 1930 abbf
00000350: 5502 d7bf 6c6f ba3d 8914 dc3d cb54 083e
00000360: 067a 243d 67aa d93e d5a5 86bf d098 903e
00000370: 6e8c 87bf 7c07 65bf c520 a2bc 8980 a9bf
00000380: 0738 e0be 1946 d7bd acff 16be a0c1 6cbe
00000390: 2459 aebc 167a debe e029 15bf b846 dabe
000003a0: e8be 2ebf 1247 99bf 6b79 eebe aac7 77bf
000003b0: 6701 95bd 2e5f 89be 924c 2dbf 5dfb 953b
000003c0: 3f0f d83c 2af6 123f fb90 0f3e 07e3 e73d
000003d0: d099 06bf c393 41be ef8d a6be 2d1a b7bd
000003e0: 781c f5be dc63 c8bf b3e7 ab3d d763 39bf
000003f0: f67f 3fbd 5e74 8dbe 3d14 f3bd 2a64 d13d

linear_stack.6.bias f4 [16]
0.023139141 0.4509708 0.33147928 0.1587587 0.13027065 0.34817705 0.38663578 0.19816688
0.38536632 0.40237385 0.13165276 1.5456666e-05 0.13240014 0.076402955 -0.19971934 0.06078904
00000000: 4c8e bd3c a5e5 e63e a7b7 a93e a491 223e
00000010: ab65 053e 4344 b23e 20f5 c53e 42ec 4a3e
00000020: bc4e c53e f203 ce3e fbcf 063e f0a8 8137
00000030: e793 073e 2779 9c3d 3a83 4cbe eefd 783d

linear_stack.9.weight f4 [8, 16]
-0.65705997 0.08304666 0.10533526 0.116252705 0.08916755 0.04960118 -0.06092892 0.08266584
0.055121712 0.05328523 0.016600389 -1.381104 0.031002954 -0.56053203 0.17198837 0.10351839
-0.38134554 0.07298683 0.102292605 0.06558567 0.06709239 -0.020125916 0.114864595 -0.037737235
0.018125424 0.10661061 0.074705996 -1.2174605 0.048956346 -0.35887843 0.05530718 0.08452671
-0.35505235 0.033308472 0.08509584 0.18689436 0.13215823 0.02246752 -0.010735771 0.14356516
0.057473764 0.070662044 0.009736375 -0.40037933 0.10807436 -0.21643505 -0.0009860448 0.12665796
-3.7714713 0.032201104 0.0055195894 0.13344254 -0.11528278 0.11025712 0.081704885 -0.002847297
0.050994903 0.10759507 -0.053337093 -2.526674 0.144597 -4.292564 0.04981815 0.18112046
-0.35066983 0.049536806 0.14353497 -0.25268927 0.12235713 0.02422322 0.04299137 0.0718252
-0.044536456 0.09923567 0.044718053 -0.8934386 0.084862284 -0.42930648 -0.036203194 0.14731357
0.015046766 -4.292956 -2.1076953 -2.5917568 -2.0265503 -2.1375453 -2.7560716 -2.2931547
-2.7310994 -2.5830579 -1.3211198 0.040125296 -1.8575715 0.037111778 -0.39699498 -1.7491769
-0.23284337 0.037836693 0.05687703 0.065250434 -0.016027946 0.05409585 0.17069899 0.061497852
0.078532115 0.045961652 -0.041281525 -0.566688 0.045026008 -0.3038578 0.05299205 0.006309844
-0.10434933 -0.069344014 0.0014536896 -0.21445683 -0.02071625 -0.11182303 -0.011468692 -0.024220087
0.002546572 -0.1372429 -0.21873884 -0.034654435 -0.09521501 -0.0014233072 -0.16629252 -0.12110591
00000000: 1535 28bf 5e14 aa3d 03ba d73d e615 ee3d
00000010: 7a9d b63d 9b2a 4b3d 9a90 79bd b54c a93d
00000020: 4ec7 613d 9d41 5a3d 8afd 873c 04c8 b0bf
00000030: e8f9 fd3c 077f 0fbf b81d 303e 7301 d43d
00000040: b93f c3be 1e7a 953d c97e d13d c851 863d
00000050: bc67 893d 1bdf a4bc 213e eb3d 5c92 1abd
00000060: c57b 943c aa56 da3d 75ff 983d bfd5 9bbf
00000070: 7386 483d eabe b7be c889 623d 571c ad3d
00000080: 6cc9 b5be 776e 083d ba46 ae3d 3c61 3f3e
00000090: 7d54 073e ce0d b83c 16e5 2fbc bf02 133e
000000a0: 9c69 6b3d 43b7 903d 5185 1f3c 85fe ccbe
000000b0: 1756 dd3d 26a1 5dbe 2c3e 81ba a0b2 013e
000000c0: c95f 71c0 4ee5 033d acdd b43b 29a5 083e
000000d0: 6119 ecbd 7cce e13d e454 a73d b799 3abb
000000e0: 08e0 503d ce5a dc3d ff77 5abd 07b5 21c0
000000f0: 3c11 143e af5c 89c0 1e0e 4c3d a477 393e
00000100: ff8a b3be 1be7 4a3d d5fa 123e 7d60 81be
00000110: 6096 fa3d c66f c63c b817 303d 1719 933d
00000120: dc6b 36bd 123c cb3d 472a 373d 64b8 64bf
00000130: 47cc ad3d 0fce dbbe cd49 14bd 5ed9 163e
00000140: b686 763c e55f 89c0 7be4 06c0 58df 25c0
00000150: 00b3 01c0 8bcd 08c0 7a63 30c0 0cc3 12c0
00000160: 55ca 2ec0 d250 25c0 741a a9bf 6c5a 243d
00000170: e7c4 edbf 8502 183d ed42 cbbe 07e5 dfbf
00000180: 7e6e 6ebe a6fa 1a3d e3f7 683d 05a2 853d
00000190: 0a4d 83bc 9c93 5d3d b7cb 2e3e 2ce5 7b3d
000001a0: 72d5 a03d 4942 3c3d d116 29bd 7712 11bf
000001b0: 316d 383d 4093 9bbe 310e 593d cfc2 ce3b
000001c0: 1ab5 d5bd 3c04 8ebd bb89 be3a 929a 5bbe
000001d0: 20b5 a9bc 7903 e5bd 2ee7 3bbc 3469 c6bc
000001e0: 63e4 263b 6789 0cbe 13fd 5fbe cff1 0dbd
000001f0: 1600 c3bd 448e baba 9648 2abe 6006 f8bd

linear_stack.9.bias f4 [8]
0.2347092 0.2359965 0.21639915 0.22032571 0.19360039 0.34041727 0.18242776 -0.335207
00000000: 9c57 703e 11a9 713e bd97 5d3e 109d 613e
00000010: 2e3f 463e 2c4b ae3e 58ce 3a3e 40a0 abbe

linear_stack.12.weight f4 [2, 8]
-0.05491403 -0.030926375 0.16756408 0.10922782 -0.013592562 0.02470185 0.27809447 0.13528813
-0.019180786 0.033231836 0.26487067 0.17704402 0.09220247 -0.07737331 0.2984837 0.03341092
00000000: 89ed 60bd 4f59 fdbc eb95 2b3e d6b2 df3d
00000010: 56b3 5ebc 895b ca3c 6662 8e3e f988 0a3e
00000020: 0621 9dbc 1b1e 083d 219d 873e 074b 353e
00000030: a6d4 bc3d e675 9ebd dbd2 983e e4d9 083d

linear_stack.12.bias f4 [2]
0.013697502 -0.05507242
00000000: 7d6b 603c 9e93 61bd
