models/model_c2_p[[0.0, 0.1], [0.9, 1.0]]_b32_lr0.001_d0.5_e500.pth (torch, 4581 bytes, 6 tensors)

linear_stack.0.weight f4 [16, 22]
00000000: b201 ccbe 861a 1d3e 8ba6 2e3e 92b8 8fbf
00000010: 03ec 893d 1c58 cc3e e22b 9cbd d587 82bb
00000020: a55b f4bb 5d7c b03e 1f1f 1cbf 7062 07bf
00000030: e72d 66be bdc0 043e 3e0c c03f 433d 5c3f
00000040: 8f7b ed3d 9d4f ccbe 6450 d1bc 7c7c fa3d
00000050: 41cf 013f d747 1dbf 5f78 803d 2646 afbe
00000060: e6e5 2abe 0116 1b3d a94d 0bbe 99b0 11bc
00000070: f1ce cf3d c7ba 24be 908c 103e 9417 97bf
00000080: eadd c03f 236b 6b3e 71bf 9f3e 7c2e 2b3e
00000090: 015e d9be 19ae 0ec0 bd8b 1fbf 92ee 263f
000000a0: 774d c7be dbe8 2a3e c124 513a e814 16be
000000b0: 058c 90be 0a61 873e 5f5b 2dbc a06f adbf
000000c0: 2ec6 093e 6ecb ae3d e9b8 dabe 8677 c23e
000000d0: e39d 34be 73ca d93e 338e cbbe 4e13 c8be
000000e0: f7e9 2dbf 0007 0a3e b904 943f a9ae a33f
000000f0: 2eef 103e 4fcf 0abf 0ce6 1d3e a05a 3b3c
00000100: 87f0 893e 4c5a 99be 2e37 013d 27d1 843c
00000110: b109 b93c a404 153f 5e59 bc3e 376f cb3e
00000120: 0a52 613e 7e7f e7bd 7e78 d93c 614b 1d3f
00000130: af8d 72bd 53b2 9d3c 98ab 27bf 3937 f63e
00000140: 4292 31bf e81d 223f ce00 063f e6fa 67bf
00000150: a292 663f 0fa9 83bf b24e a23e 4d53 64bf
00000160: 0fa1 083d 0c52 c33e 2650 0fbf 2166 94bc
00000170: 706c 30bd 5ebc 66bf 46a1 583d 235b 07be
00000180: 27dd 8d3d ee8d 2b3c c399 e1bd 422a 823e
00000190: d396 fcbe 8c73 debc 1f30 c93f 0f9d 883f
000001a0: d3a7 a63e b0fd 0ebf f03a 96bf 82d5 123f
000001b0: 64bf 093e b0a9 e5be 13d1 753e fce0 bd3e
000001c0: 13b4 dbbe f060 683d 60e9 1fbe 6d9f d5be
000001d0: 52fe 2c3e 55ec 7cbd 488b 003d c962 8d3d
000001e0: 6b9f 8ebe e55b e13d d275 0abf 11f2 a23d
000001f0: a094 ba3f 53f8 f63b c2c1 9c3d 36e3 32be
00000200: bb20 07c0 f740 383f df38 c73e 5569 15bf
00000210: 2b49 9e3c 2a9a 943e 9a89 1bbe fa7d c6bd
00000220: 5959 593e 286c b0be 1737 243d 5c5e 793e
00000230: 01f1 3bbe 6aa7 413f 6e95 97bd ecc0 153c
00000240: 26a6 7dbf 456a b33e 4c6d 32be 3d87 c63f
00000250: da3a 99be 1204 09bf 750c 8e3f e6a0 92bf
00000260: e430 643d 4dea 38bf 18c5 283b b05b 57be
00000270: 1ef3 39bd b35b 17bf b3b1 b13e 27d7 94be
00000280: 9abb b3bf 740e 5ebe fd04 8fbe b120 183f
00000290: 6b50 94be 5388 9ebd 9499 debd a968 28bf
000002a0: 8a62 e5bd 5cbb 1d3f b957 493f 40a8 d5be
000002b0: 6225 033f c3c5 c93d e8e9 073f e9a6 30bf
000002c0: 4b0c 74be b0a8 043f cc53 45be 6991 2e3e
000002d0: 8e43 693d 20eb 2cbe 76c5 9fbd a773 97bd
000002e0: 6c99 f2bd a5d4 953d 44ca 783d 77d8 3d3e
000002f0: a108 eebe 30c1 7abb 5d4b c13f c68f a03f
00000300: 430e 663e e6c2 b7bf ae9c 9dbf 045a eb3e
00000310: ac5a bb3e c23a a4be 98d1 69be ac54 d43d
00000320: 4c7d 0fbf 555f 1ebd a17f 463d ac1c ddbd
00000330: b39a 2d3e fe3f 4dbd 89d2 7c3d de9b 933d
00000340: cc86 85be 708e bbbe c5e5 bebe 659b 91bd
00000350: 2151 d93f 9220 a13f 4d07 013f b9c6 99bf
00000360: ac0d d9bc cf9b 8ebe 20de d73e b07b 17bf
00000370: c9e8 963e a276 dbbe 80cf b0be 9a32 e0bd
00000380: 9108 ac3d 901d cdbc bdbc bd3e 17d8 c4bc
00000390: e52d 053e d52f 5ebf ff42 7f3e ce7e 633f
000003a0: 0713 083e 4fb7 8f3e 8548 2abf 605d 413e
000003b0: 549f 0dbf f9c3 153e a9a1 6b3d fccf 0bc0
000003c0: 3d86 5fbe 0b66 c63e 506d 4dbe a743 8abe
000003d0: 7d9d b8be be60 78bf 8032 86bc b074 5bbe
000003e0: 0490 113f ac06 d9bc 85fb 9fbd e72e 913d
000003f0: fe5e 19be 8993 52bd e371 12bf 41d6 babe
-0.39845043 0.15342149 0.17055719 -1.1228201 0.06734469 0.39910972 -0.076255575 -0.0039834776
-0.007457214 0.34469882 -0.6098499 -0.5288458 -0.22478448 0.12964149 1.5003736 0.8603098
0.115958326 -0.3990449 -0.025551029 0.12230775 0.5070687 -0.61437744 0.06272959 -0.34233207
-0.16689262 0.03786278 -0.13603844 -0.008892202 0.10146893 -0.16086875 0.1411612 -1.180407
1.5067723 0.22990088 0.31200746 0.16716951 -0.42454532 -2.229376 -0.623226 0.6520778
-0.38926288 0.1669039 0.0007978194 -0.14656413 -0.28231826 0.26441222 -0.010580867 -1.354969
0.13454506 0.08534895 -0.427192 0.37981814 -0.17638354 0.4253727 -0.39756927 -0.39077228
-0.6793513 0.13479233 1.1563941 1.2787677 0.1415374 -0.5422258 0.15419787 0.011435181
0.2694132 -0.29951704 0.031546764 0.016213013 0.022587629 0.58210206 0.36786932 0.39733288
0.22003952 -0.11303614 0.026546713 0.61443144 -0.05921715 0.01925007 -0.65496206 0.48089007
-0.69363797 0.63326883 0.5234498 -0.90617216 0.90067494 -1.0285968 0.31700665 -0.89189607
0.033356722 0.38148534 -0.5598167 -0.018115105 -0.043072164 -0.90131176 0.052888177 -0.1321836
0.06926947 0.01047085 -0.11015656 0.25422865 -0.4933382 -0.027154706 1.571781 1.067293
0.32549915 -0.55855846 -1.1736736 0.5735704 0.13451916 -0.44856024 0.24005537 0.37085712
-0.42910823 0.05673307 -0.15616369 -0.41723195 0.1689389 -0.06174882 0.03138283 0.069036074
-0.27856 0.110038556 -0.5408603 0.07956327 1.4576607 0.007536927 0.07654144 -0.17469487
-2.1113727 0.7197413 0.38910577 -0.5836385 0.019321999 0.29023868 -0.1518921 -0.09691997
0.2122549 -0.34457517 0.0400916 0.24352401 -0.18353654 0.7564608 -0.07401548 0.009140234
-0.9908165 0.35042015 -0.17424506 1.5510021 -0.29927713 -0.53521836 1.1097552 -1.1455352
0.05571069 -0.72232515 0.0025752243 -0.2103107 -0.04539787 -0.59124297 0.34705886 -0.29070398
-1.4041626 -0.21685201 -0.27933493 0.59424883 -0.28967604 -0.077408455 -0.108691365 -0.657847
-0.112004355 0.6161401 0.7864948 -0.41729927 0.51228917 0.09852173 0.5309129 -0.69004685
-0.23832814 0.51819897 -0.19270247 0.17047657 0.05694919 -0.16886568 -0.078013346 -0.07395106
-0.11845669 0.07315949 0.06073977 0.18539606 -0.46490958 -0.0038262121 1.5101124 1.2543876
0.22466378 -1.4356353 -1.231344 0.45967114 0.36592615 -0.3207608 -0.2283386 0.103677124
-0.5605056 -0.038665134 0.04846156 -0.10796484 0.16953544 -0.050109856 0.06172422 0.07207464
-0.26079404 -0.3663211 -0.37284675 -0.07109717 1.6977884 1.2588065 0.50401765 -1.201377
-0.026495777 -0.27853248 0.42161655 -0.5917311 0.29474476 -0.42863947 -0.3453331 -0.109471515
0.084000714 -0.02503851 0.37058058 -0.02402882 0.13005789 -0.86791736 0.249279 0.88865364
0.13288508 0.2806954 -0.66516906 0.18883276 -0.5532124 0.14625539 0.057527218 -2.1845694
-0.21828552 0.38749728 -0.2006123 -0.2700474 -0.36057654 -0.97022617 -0.016381502 -0.21431231
0.56860375 -0.02649244 -0.078116454 0.07089024 -0.14977643 -0.05141023 -0.5720503 -0.36491588

linear_stack.0.bias f4 [16]
00000000: f4ed 69bf f576 d1bf bc1e 8bbf f5ec 04c0
00000010: f1bf febe 098c a8bf 91b3 a4bf c51e d9bf
00000020: 2287 33bf 0fce 32bf acce 20bf a7da 03c0
00000030: f007 c6bf 7a62 8abf 3698 33bf b0ba 1bc0
-0.9137871 -1.6364428 -1.0868754 -2.0769627 -0.49755815 -1.3167735 -1.2867299 -1.6962515
-0.7012807 -0.6984567 -0.62815356 -2.0602205 -1.5471172 -1.0811303 -0.7015413 -2.4332695

linear_stack.3.weight f4 [8, 16]
00000000: accb b3be 814d 853e 310c 27bf b173 0abf
00000010: f749 1bbe 3d65 28bf d72f cdbf f10a 51bf
00000020: eee0 1cbf 3080 e0be f8f2 073e 0ba7 1bbf
00000030: 8b5b 893e 4e7f b3be f2ad 80bf b60b 9c3e
00000040: 1f54 083e bd8b b0bd 042e 823d 0b58 103e
00000050: c728 adbb 9c35 343e 0a96 ba3d 3fcd a13d
00000060: d5ae 033d 61a0 b53d 516c 43bc c147 6f3e
00000070: 6e02 8fbc a264 913d 6e0f 9b3d a9bb 08be
00000080: f17b de3c a4af 97bd 0718 a73d 862c 0d3e
00000090: 0404 5c3d b23e 253e 6dfe ab3d 3269 a23d
000000a0: 7d9e bc3d 3953 2b3d 0d0d 9dbd e42b 943e
000000b0: fd16 9bbd c344 d73d 2fa8 6b3d 64d0 06be
000000c0: 952a ef3d 3a2f 53bd 5659 d13d 7b99 fe3d
000000d0: d0ef 903d 60bf 333e 9845 ce3d 6658 903d
000000e0: b283 ad3c 997e 3c3d fc83 b13b e59b 9a3e
000000f0: 7583 4e3c 8703 f13c 0b4a 8d3d 39ec b9bd
00000100: 8a2f 34be d98d 863e bcff 09bf c62b 73bf
00000110: 3207 3cbf 0364 7abf 4cbb 23bf 6ac4 1dbf
00000120: efaf 13bf 2bb4 0ebf fea5 383e d4d2 56bf
00000130: 6cad 963e 8c93 08bf 0d37 38bf 13ad a33e
00000140: 8705 273c 502c cabb 2d9e b93d c2fa 0e3e
00000150: e89c db3d d614 393e 6206 853d 1dc4 e03b
00000160: 9b88 e03c c416 343d 52d9 cbbc d3ec a33e
00000170: 0e89 38bd 34bc a43d cba8 1b3d 1456 21be
00000180: e711 dfbe bfac 813e 5eaa 20bf f39c 6dbf
00000190: 80f3 babe c62a 28bf a1cb 95bf 6e1f 5fbf
000001a0: ee38 2dbf 76d8 0abf 52ec 8e3d 23f8 91bf
000001b0: 87b0 663e 7425 afbe ce71 88bf fbbf ae3e
000001c0: b1be 763d ebd1 02be 2459 643d 450d 3b3e
000001d0: 2d63 a83d dff7 3c3e 3ce9 f13d 6549 963d
000001e0: 6b6b 373d 48f8 173d c291 0cbe a231 823e
000001f0: 89ed 9dbd a714 243d 6c70 0e3d 117f 1bbd
-0.35116327 0.26035693 -0.6525298 -0.5408278 -0.15164934 -0.6577948 -1.6030225 -0.8165732
-0.61280715 -0.438478 0.13276279 -0.6080176 0.26827654 -0.35058063 -1.0053084 0.30477685
0.1331334 -0.08620403 0.06356433 0.14096086 -0.005284402 0.17598575 0.09110649 0.07900476
0.032149155 0.088684805 -0.01192768 0.23367216 -0.017457213 0.07099272 0.07571302 -0.13352837
0.02715871 -0.07406548 0.0815888 0.13786516 0.053714767 0.16137198 0.08398137 0.07930221
0.09209917 0.041827414 -0.07668505 0.28939736 -0.07572744 0.10511162 0.05753344 -0.13165432
0.11678044 -0.05155871 0.102221176 0.12431618 0.070769906 0.17553473 0.10071868 0.07048111
0.021180961 0.04601917 0.005417345 0.30197063 0.012604584 0.029420627 0.06898888 -0.09078259
-0.1759626 0.26280096 -0.53905845 -0.9498867 -0.7344848 -0.97808856 -0.6395767 -0.6162783
-0.5769033 -0.55743665 0.18032071 -0.8391545 0.29429185 -0.5335014 -0.71959 0.31967983
0.010194189 -0.0061698332 0.09063373 0.13962844 0.10723287 0.18074355 0.06495358 0.006859316
0.027408889 0.043967023 -0.0248839 0.3201662 -0.04505258 0.080437094 0.03800277 -0.15755492
-0.43568346 0.25327107 -0.6275996 -0.9281761 -0.365139 -0.6569027 -1.1702768 -0.8715733
-0.6766499 -0.54236543 0.06978668 -1.140385 0.22528277 -0.34208262 -1.065973 0.34130844
0.06024045 -0.1277539 0.055749074 0.1826678 0.08222041 0.1845393 0.11812064 0.07338218
0.044780176 0.037102014 -0.13727477 0.25428492 -0.07711322 0.040058758 0.034775183 -0.037962977

linear_stack.3.bias f4 [8]
00000000: d6af c33e f4a5 4abb 29d3 743b a948 a1bb
00000010: 6681 d63e 043b 6e3c 9326 d63e eb44 0e3d
0.3822009 -0.003092167 0.0037357307 -0.004921992 0.41895598 0.014540438 0.41826305 0.034733694

linear_stack.6.weight f4 [2, 8]
00000000: ecf9 bbbc 5486 20be 2f7a bfbd 9073 a5be
00000010: 3108 43bd 7842 873e 3b32 bd3d 67d4 523e
00000020: 664d 8bbe 7cfb bbbd f9e7 cbbc cd20 7dbe
00000030: 4e79 a2be 6496 9e3e 40b1 53be 788b 8a3e
-0.02294632 -0.15676242 -0.093494765 -0.3231473 -0.047615234 0.264179 0.09238096 0.20588838
-0.27207488 -0.09178826 -0.024890887 -0.24719544 -0.31733173 0.30974114 -0.20673084 0.2705953

linear_stack.6.bias f4 [2]
00000000: cc6d 2cbe b10a 35be
-0.16838759 -0.1767986
