models/model_c2_y1_p[[0.0, 0.3], [0.7, 1.0]]_b32_lr0.001_d0.5_e500_tech.pth (torch, 3685 bytes, 6 tensors)

linear_stack.0.weight f4 [16, 8]
00000000: b54e e5bf a3ab 63bf eac8 983f fc2d c23e
00000010: 88ff 16bf 6e5e 7fbf ab4f f2bd dd5e 3a3e
00000020: f7dd 223f 54be 4dc0 4c04 e93e 2ab5 dfbd
00000030: 20e5 a7be 0275 32be 9e20 0abf b1b5 76be
00000040: 6ac2 033f b85d a53d 90a0 2bbe 8c7b fcbe
00000050: 95d3 f33d 302b dc3e 6a01 003e 33f6 153e
00000060: 8949 3b3f fe2b 57c0 0746 783e fa0a 04bd
00000070: 9f6d eabe 40c7 8a3c 8f5c fcbe a595 aebe
00000080: 5f11 903e 1491 9ebe 7cf9 41bf 32ac 19be
00000090: d296 98bd 25be 223f bf52 46be 2df2 a63f
000000a0: 9413 f13d 9afc af3e 97dd 6fbe 67b6 21be
000000b0: 03fa f63e b754 7d3e 412f a1be af5b fd3d
000000c0: 7fb6 91be d322 4a3f e8fb 323e e115 45be
000000d0: 2848 b53e b55d 963e 4f0a 25bf f604 1bbe
000000e0: 79b4 95bf bf93 dbbf 53e9 853f 7dfe 3a3e
000000f0: 84a3 53bf 1b0d 86be ad3b 2abe 2a26 10be
00000100: 612f b43f 612d 38c0 e980 b23d 35e7 75bd
00000110: a5b7 aabc 44da 0abe af13 7e3f 2cd2 87bc
00000120: f2ff b83f 0f87 23c0 c0d9 8dbe b5a0 1b3f
00000130: 65ae 20bf e675 8b3e aee1 d7bf 4f0d 78be
00000140: 4019 613e cb2c c03e 5caa 31be f342 543c
00000150: fbf5 103f 6a98 133e 29ea 94be 2a75 79bd
00000160: 409a 5f3e 3a5f af3e f6eb 4d3d 7f41 0dbf
00000170: ccac 063f 9751 af3d ad1f 5d3c cb9d 49bf
00000180: 7be0 f93e f415 993c d247 63be 6889 913d
00000190: 047b 073e cf58 a23e 2f4c 14bc 1592 30bd
000001a0: 3409 37bf 3718 0fc0 16de 4d3f 1de2 aa3e
000001b0: cc58 66bf f71d d1be 2d10 cfbe 8769 06be
000001c0: d92f d4bf c1a7 313f 596e 18bc 04e5 7f3e
000001d0: 3b61 a2bf c3b3 81bd f802 95be 354f 56be
000001e0: 2d0f cf3e d21a a0bf d594 b23e 35d8 2abe
000001f0: 07a4 0cbf e4ed 74be 97b0 f6bc 1b93 4c3f
-1.7914644 -0.8893377 1.1936314 0.37925708 -0.5898366 -0.99753463 -0.11831602 0.1820025
0.6361994 -3.2147417 0.4551109 -0.10923226 -0.32791996 -0.17427447 -0.5395602 -0.24092747
0.5146853 0.08074516 -0.16760468 -0.4931301 0.119055904 0.430017 0.1250054 0.14644699
0.7315908 -3.36206 0.24245463 -0.03223703 -0.4578676 0.016940713 -0.49289367 -0.34098545
0.28138253 -0.3097006 -0.7577131 -0.15007094 -0.07450642 0.6357139 -0.19367503 1.3042656
0.11771312 0.34372407 -0.23424374 -0.15792237 0.4823762 0.24739347 -0.31481364 0.12371003
-0.28459546 0.7895939 0.17478907 -0.19246627 0.35406613 0.29368368 -0.64468855 -0.15138611
-1.1695701 -1.7154464 1.046183 0.18261142 -0.8267138 -0.26181874 -0.16624327 -0.14077058
1.4076959 -2.8777697 0.08715994 -0.06003495 -0.020839522 -0.13559824 0.99248785 -0.01657971
1.4453108 -2.5551183 -0.27705193 0.60792094 -0.62766105 0.27238387 -1.6865747 -0.24223827
0.21982288 0.37534174 -0.17350143 0.012955415 0.56625336 0.1441361 -0.290849 -0.060902752
0.21836185 0.3425234 0.050273858 -0.55178064 0.5260742 0.08560484 0.013496322 -0.787564
0.48804078 0.018687226 -0.22195366 0.07106286 0.1323052 0.3170838 -0.009051367 -0.043108065
-0.7149842 -2.235853 0.80417 0.33375636 -0.89979243 -0.40843174 -0.4044203 -0.13126193
-1.6577102 0.693966 -0.009303653 0.24989706 -1.2685922 -0.06333115 -0.29103827 -0.20928653
0.40441266 -1.2508185 0.34879175 -0.16684039 -0.54937786 -0.23918873 -0.030113501 0.79911965

linear_stack.0.bias f4 [16]
00000000: c314 2dbf c9ba 49bf 8e17 48bf f284 3fbf
00000010: 01a7 3cc0 edec e03d 53fe 06bf 1ef9 72bf
00000020: 9c53 1bc0 507d b4bf 5d8e 74bc 04c9 87bf
00000030: f266 b1be 383b 42bf 4c08 afbf 05b4 6cc0
-0.67609805 -0.78800637 -0.7816094 -0.74812233 -2.947693 0.1098269 -0.5273182 -0.9491137
-2.426978 -1.4100742 -0.01492652 -1.060822 -0.34648854 -0.7587161 -1.3674407 -3.6984875

linear_stack.3.weight f4 [8, 16]
00000000: a090 7fbe 81cb 8abe 054a 873d 3126 65be
00000010: b959 2e3f 9abe 803d fb8d ed3d 5216 d3bd
00000020: 0371 0b3f fc33 6dbe 28d1 38b9 14a9 e33d
00000030: 18ee 2d3d ae2b e6bd eade 92bd f007 3c40
00000040: cdb7 7cbf 0a7f 46bf 540d 2a3b 8d65 5fbf
00000050: b736 0b3f 8efd 843d f923 c43d 1155 65bf
00000060: 2261 743e 067a 48bf 0325 0fbd dd88 bebd
00000070: e9c9 1c3d 3006 b4bf 9d41 19be bed1 3740
00000080: 09d4 b3bc 0ad8 eebd 2a06 eb3d cef0 04be
00000090: 055a 423f fc46 a33c bfcd b33d 89a6 b5bc
000000a0: d5d3 043f 1351 a4be c891 353d 80c9 3b3e
000000b0: d2b6 d73d 42bd 49bd df49 c93d 09d5 7540
000000c0: 7296 d0bd 2c4a b9bd 80aa e03d 450e 31bd
000000d0: e1ff 813f 8992 c4bc 9d3a f13b fd25 4cbd
000000e0: 48af dc3e 3043 3dbe dc07 b53d 4f8b e03d
000000f0: 7ac2 403e 79c0 4bbd a2e8 153e 2446 7840
00000100: bc8e aabe cd5a b2be b2d6 803d 90eb 8bbe
00000110: 9ac1 183f b074 af3d 8286 8b3d 072c ebbe
00000120: d7cc 9f3e 0b14 02bf 3040 2b3d ce09 d33d
00000130: 6d12 933d 4b35 cdbe 4cea ffbd a3bf e43f
00000140: f59d eb3c 7505 e93c d6f8 24c0 943b 983d
00000150: 553a f5c0 7878 3bc0 0bb7 4ec0 1ada d83d
00000160: 5417 06bf 81f2 13be ad4e 44c0 061d 11c0
00000170: eb1d 14c0 7a92 153d d011 39c0 1e3d 95c0
00000180: 65aa a3be 24d2 83be 8d5f 243e 5ee8 acbe
00000190: 14da 703e c0d3 5c3d befd 023d a927 b0be
000001a0: d61c 5b3e 23ba a3bf f826 ad3c b597 a93c
000001b0: 5e31 a23d 4db9 adbe a14c 803d d9ea 5840
000001c0: cc5d 38be 5ddf 91be 7d58 793c 39ee 3ebe
000001d0: 1301 0a3f 3bd9 db3d 38fd d23d c929 7cbe
000001e0: 7e68 153f de71 45bf 1c3c 70bc 8444 003d
000001f0: e13b c4b9 e272 3fbe 0275 203e 426f 4040
-0.24957514 -0.27108386 0.06605915 -0.2237785 0.68105656 0.06286354 0.11599346 -0.10306992
0.5446932 -0.23164362 -0.00017625524 0.111162335 0.042463392 -0.112388 -0.07171424 2.9379845
-0.9871796 -0.77537596 0.0025947886 -0.8726433 0.54380363 0.06493674 0.09577174 -0.89582926
0.23865178 -0.78311193 -0.034947407 -0.09303448 0.038278494 -1.4064388 -0.14966436 2.8721766
-0.021951692 -0.116623 0.11475785 -0.12982485 0.7591861 0.019931309 0.08779477 -0.022174137
0.5188573 -0.32093105 0.04432848 0.18338585 0.10532917 -0.049252756 0.09828543 3.8411276
-0.10184945 -0.0904735 0.1097002 -0.0432265 1.0156213 -0.023995655 0.0073617236 -0.049840916
0.4310248 -0.18482661 0.0883939 0.10964071 0.18824187 -0.049744103 0.14639524 3.879281
-0.33312023 -0.348349 0.0629095 -0.27328157 0.5967041 0.08567178 0.06812765 -0.45932028
0.31210968 -0.50811833 0.04180926 0.103046045 0.07181249 -0.40079722 -0.124958605 1.7870983
0.028761843 0.028444985 -2.5776877 0.074332386 -7.6633706 -2.9292278 -3.229922 0.105884746
-0.52379346 -0.14447977 -3.067302 -2.2673965 -2.314326 0.036516644 -2.8917122 -4.6637106
-0.31965938 -0.25746262 0.16052075 -0.33771032 0.2352069 0.053912878 0.03198027 -0.34405258
0.21397719 -1.279118 0.021136746 0.020702222 0.07919572 -0.33930436 0.06264616 3.389334
-0.1800453 -0.28490725 0.015218851 -0.18645562 0.5390789 0.10734793 0.10302204 -0.24625315
0.5836257 -0.7712687 -0.014662769 0.03131534 -0.00037428646 -0.18696168 0.15669635 3.0067906

linear_stack.3.bias f4 [8]
00000000: afcb 763e ee73 883e 1b2c 1c3e c748 103e
00000010: 4d73 763e cf09 873e ad30 8e3e bd61 7e3e
0.24101137 0.26650947 0.152512 0.14090262 0.24067421 0.2637467 0.27771512 0.24841972

linear_stack.6.weight f4 [2, 8]
00000000: aef4 ebbb e47f 67be 2859 b4be cea5 fbbc
00000010: 89da bbbe e264 383d 01d5 7d3e dd72 97be
00000020: 6afa 013d eebc 16be 3476 a6be 48a9 efbc
00000030: 77bc 97be 698c 74bd 159e 9f3e d953 87be
-0.007200799 -0.2260738 -0.3522427 -0.03071871 -0.36690167 0.045018084 0.24788286 -0.2957982
0.031732954 -0.14720508 -0.32512057 -0.029255524 -0.29635975 -0.059704218 0.31175295 -0.26431158

linear_stack.6.bias f4 [2]
00000000: 1b24 85bd 78d5 2abe
-0.06501027 -0.16682994
