models/model_c2_y1_p[[0.0, 0.3], [0.7, 1.0]]_b32_lr0.001_d0.5_e500.pth (torch, 4581 bytes, 6 tensors)

linear_stack.0.weight f4 [16, 22]
0	0xbe584ac7	-0.21122275
1	0x3ee524bc	0.4475459
2	0xbf09ea86	-0.5387348
3	0xbf6e236e	-0.9302281
4	0xbdf3e407	-0.11908727
5	0x3e8e5e7d	0.27806464
6	0x3f5c47eb	0.8604724
7	0x3ef3d7f3	0.47625694
8	0xbe4c39c0	-0.19943905
9	0xbd921537	-0.07132953
10	0x3e94ea46	0.29084986
11	0xbe7eafa0	-0.24871683
12	0xbec03245	-0.37538353
13	0xbe8bcb7e	-0.2730369
14	0x3f2a5134	0.66530156
15	0x3f613ea0	0.87986183
16	0x3e8393de	0.2569875
17	0xbf18d87e	-0.5970534
18	0x3b1b8096	0.0023727766
19	0xbf658df6	-0.8966974
20	0x3e969458	0.29410052
21	0xbe2dee78	-0.169855
22	0x3df579d7	0.1198613
23	0x3f3628ec	0.7115619
24	0xbdb98657	-0.090588264
25	0xbf4df73c	-0.80455375
26	0xbdf76dc6	-0.120814845
27	0x3ed8fea7	0.42381784
28	0x3e64f8d7	0.2236055
29	0x3e8c37b1	0.2738624
30	0xbe18cf2c	-0.1492278
31	0xbec0bcd4	-0.37644064
32	0x3e8790af	0.26477572
33	0xbf07d508	-0.53059435
34	0xbee45b99	-0.44601133
35	0xbd899751	-0.067183144
36	0x3f902483	1.1261142
37	0x3ea4e69d	0.32207194
38	0x3efa5c7d	0.48898688
39	0xbf591f10	-0.8481302
40	0xbe16c6fb	-0.14724343
41	0xbf4e1257	-0.80496734
42	0x3ee15c35	0.4401566
43	0xbd31c5c4	-0.043401495
44	0x3ed92b4b	0.42415842
45	0xbddc03aa	-0.10742886
46	0xbe8fed6e	-0.28110832
47	0x3a93eaa7	0.0011285142
48	0x3d35fb7b	0.044429284
49	0xbd224e12	-0.039625235
50	0x3d06a9ca	0.032876767
51	0x3e082710	0.13296151
52	0xbb94eba0	-0.0045446903
53	0x3f46dddc	0.7768228
54	0x3f80f0f2	1.0073531
55	0x3f32e7f9	0.6988521
56	0x3d1d47ce	0.038398556
57	0x3d928855	0.071549095
58	0xbee2e468	-0.44314885
59	0x3f3efef1	0.7460776
60	0xbf63a07f	-0.8891677
61	0x3e74b21d	0.2389607
62	0xbf8a9c76	-1.0828998
63	0xbf92124d	-1.1411835
64	0x3de95fa7	0.11395197
65	0x3b9c4a58	0.0047696047
66	0x3ebf5ee2	0.37377077
67	0x3ef1702c	0.47155893
68	0xbdd0359f	-0.101664774
69	0x3aaf649e	0.0013381427
70	0xbe08dec2	-0.13366225
71	0xbe658ddf	-0.22417401
72	0xbf45c460	-0.7725277
73	0xbdfadccb	-0.12249144
74	0x3e617a67	0.22019349
75	0xbe0c2284	-0.13685042
76	0xbeade4f2	-0.33963734
77	0x3e8fe25a	0.2810238
78	0xbfa99bcb	-1.3250669
79	0x3e81abd3	0.25326404
80	0x3f2c21ca	0.6723906
81	0xbf28d256	-0.6594595
82	0xbea83efb	-0.3286055
83	0x3f613e8d	0.8798607
84	0x3eb5b57f	0.35490033
85	0xbf1057dd	-0.5638407
86	0xbf0eda1c	-0.5580156
87	0xbe57fef6	-0.21093354
88	0xbd38972d	-0.045066047
89	0xbebb430e	-0.36574596
90	0xbeb758af	-0.35809848
91	0xbd065d40	-0.032803774
92	0xbeb690a8	-0.3565724
93	0xbe0eeb31	-0.13956906
94	0xbe685f25	-0.22692545
95	0x3c482274	0.0122152455
96	0x3e072f34	0.132016
97	0xbe8a90a5	-0.2706348
98	0x3dd92df4	0.10604468
99	0x3effe20b	0.49977145
100	0x3e184f10	0.1487391
101	0x3f0006a7	0.5001015
102	0xbf437742	-0.7635385
103	0xbff98b29	-1.9495593
104	0x3ea1ee20	0.31626987
105	0x3e82df54	0.2556101
106	0x3e0c9d78	0.13731945
107	0x3f3ed9e9	0.74551255
108	0xbe495023	-0.19659476
109	0x3ae76bf0	0.0017656069
110	0xbbd4db55	-0.006495873
111	0xbe10cdfd	-0.14141078
112	0x3e9088b6	0.28229302
113	0x3e2b1409	0.16706862
114	0xbd07141e	-0.03297817
115	0xbd7ed466	-0.062214278
116	0xbfb7da5a	-1.4363511
117	0xbf0f5cff	-0.56001276
118	0x3e957ac2	0.2919522
119	0xbe5abea9	-0.21361794
120	0x3d85aaf7	0.065267496
121	0xbf3f0b96	-0.74627054
122	0xbd5b4896	-0.05353602
123	0x3d0b3cd7	0.03399357
124	0x3e13f9a3	0.14450698
125	0x3d7029dc	0.05863367
126	0x3ecc2825	0.39874378
127	0xbeef8b13	-0.46785793
128	0xbe087a36	-0.1332787
129	0xbeb32a6c	-0.34993303
130	0x3e9c5ef9	0.30541208
131	0xbe28396b	-0.16428153
132	0x3ca04df8	0.019568428
133	0x3ecbe304	0.39821637
134	0xbf0c421c	-0.54788375
135	0xbce289ba	-0.027653564
136	0x3db5c32f	0.08875119
137	0x3f46e27a	0.77689326
138	0x3f6b915c	0.92018676
139	0x3eb25c96	0.34836262
140	0x3ca97ca0	0.020689309
141	0xbe978175	-0.29590955
142	0x3d31e977	0.04343554
143	0xbf64e303	-0.8940889
144	0x3e2d2ba7	0.16911183
145	0x3d50a241	0.050935987
146	0x3ed32cc9	0.41245106
147	0x3ed831d7	0.42225525
148	0x3f01a327	0.50639576
149	0xbe075ccb	-0.13218991
150	0xbf377c02	-0.71673596
151	0xbf44108f	-0.76587766
152	0xbd9a4dcf	-0.07534372
153	0x3deef9d9	0.116687484
154	0x3e9a2bd5	0.30111566
155	0xbdc42b9f	-0.095786326
156	0xbde07b6d	-0.109610416
157	0x3f1a370d	0.6024025
158	0x3e1b2b8a	0.15153328
159	0x3e7417f1	0.23837258
160	0x3dcefbf6	0.101066515
161	0x3f06fdf6	0.52731264
162	0xbecaaa12	-0.39582878
163	0x3eda96b7	0.4269311
164	0x3cc86625	0.024462769
165	0xbea96ef0	-0.3309245
166	0x3f1386f9	0.57627827
167	0xbc83ed75	-0.01610444
168	0xbf84d776	-1.0378253
169	0x3f36d0d9	0.71412426
170	0x3f7161f5	0.94290096
171	0xbf61bbfa	-0.88177454
172	0xbd7185fe	-0.058965676
173	0xbf2f4bed	-0.6847523
174	0xbd0bd2e5	-0.03413667
175	0xbe23a92e	-0.15982506
176	0x3d577bf9	0.052608464
177	0xbf309f87	-0.6899342
178	0xbdede23b	-0.11615416
179	0x3d0f9394	0.03505285
180	0xbd89308f	-0.06698715
181	0xbcf46f7d	-0.029838318
182	0xbd81f0cd	-0.06344757
183	0x3df5429c	0.11975595
184	0xbe28bc95	-0.16478188
185	0xbf8ccd83	-1.1000217
186	0xbf373943	-0.7157175
187	0xbe01a471	-0.12660386
188	0x3dce79c3	0.10081818
189	0xbde711bd	-0.1128268
190	0xbd04460f	-0.032293376
191	0x3edbae7e	0.42906564
192	0x3e8d6b20	0.27620792
193	0xbf49b5a4	-0.78792787
194	0xbffb83e9	-1.9649631
195	0xbe006f9c	-0.12542576
196	0xbda8a29b	-0.082341395
197	0xbd14ee8b	-0.036360305
198	0xbedbde0d	-0.4294285
199	0x3e4f181d	0.20224042
200	0xbfb21a19	-1.3914214
201	0xbf01f0eb	-0.50758237
202	0xbd17387b	-0.0369191
203	0x3ed06623	0.40702924
204	0x3ef44b89	0.4771388
205	0x3e9289c4	0.28620732
206	0xbe0cdb04	-0.13755423
207	0xbd1a99df	-0.0377444
208	0x3dd44430	0.10364568
209	0xbee2324f	-0.44179007
210	0xbf5e99cf	-0.86953443
211	0x3e58395d	0.21115632
212	0x3f7d0b5e	0.9884547
213	0x3ec705c1	0.38871577
214	0x3f1e711d	0.6189135
215	0xbf57555e	-0.84114635
216	0xbe838534	-0.25687563
217	0xbe746f72	-0.23870638
218	0x3ee0f8a6	0.43939704
219	0xbdbd7f86	-0.09252839
220	0x3c4e962e	0.012609048
221	0xbea406af	-0.3203635
222	0xbe4b6c80	-0.19865608
223	0xbd33f99a	-0.04393921
224	0xbe59f2da	-0.21284047
225	0xbd9ec004	-0.07751468
226	0x3e41874b	0.18899266
227	0x3d265dd8	0.04061684
228	0x3e1dd0c5	0.1541167
229	0xbde7ff0b	-0.113279425
230	0xbebf1e71	-0.37327912
231	0x3f985f0a	1.1904004
232	0xbcd78c08	-0.02631189
233	0x3e87e6bb	0.2654322
234	0xbf4a227e	-0.7895888
235	0xbf62eb67	-0.88640445
236	0x3e6aef05	0.22942741
237	0x3eaab238	0.33339095
238	0xbefa4a80	-0.48884964
239	0xc0050bdd	-2.078849
240	0x3e4507a5	0.19241197
241	0x3ccc51bd	0.02494132
242	0x3d88228e	0.06647216
243	0x3da70b9f	0.081565134
244	0xbf03f3b5	-0.5154374
245	0xbefa5d29	-0.488992
246	0xbdab300e	-0.08358775
247	0xbe788b0b	-0.2427179
248	0x3ec30ba9	0.38094833
249	0x3e47c8aa	0.19510141
250	0xbe0ab4f2	-0.13545588
251	0xbf2aa244	-0.6665385
252	0xbdf7eeb1	-0.12106074
253	0xbfc33dd2	-1.5253241
254	0x3d8d5219	0.069004245
255	0xbeb1f45b	-0.3475674

linear_stack.0.bias f4 [16]
0	0xbe9b7a54	-0.30366766
1	0xbf1702c2	-0.58988583
2	0xbfb6b11e	-1.4272802
3	0xbfae3067	-1.3608521
4	0xbf25866f	-0.64658254
5	0xc00f42e7	-2.2384584
6	0xbf9706b5	-1.1798922
7	0xbf60f235	-0.8786958
8	0xbff30272	-1.8985121
9	0xbf8ea7c0	-1.1144943
10	0xbfbeff2a	-1.492162
11	0xbf9aea8d	-1.2102829
12	0xbfbd6e11	-1.4799215
13	0xbfabab5e	-1.3411672
14	0xbf89857f	-1.0743865
15	0xc000c383	-2.011933

linear_stack.3.weight f4 [8, 16]
0	0x3daa5dc5	0.08318666
1	0x3d71aea3	0.059004437
2	0x3eb43fc8	0.3520491
3	0xbf4e2f3c	-0.80540824
4	0xbf2978f7	-0.662002
5	0x3f6fa80b	0.9361579
6	0x3d5870a5	0.0528418
7	0x3d4143a1	0.047183637
8	0xbf827c90	-1.0194263
9	0x3e087076	0.1332415
10	0xbf276fab	-0.65404767
11	0x3deb8e3b	0.11501738
12	0xbf1ad5aa	-0.60482275
13	0x3e6450d9	0.22296466
14	0x3d86f3fa	0.065895036
15	0xbfa9903b	-1.3247141
16	0x3cdf4fdd	0.027259761
17	0x3d7bbdf1	0.06146044
18	0x3ecacb3e	0.39608186
19	0xbf9f0cfd	-1.2425839
20	0xbf463421	-0.7742329
21	0x3f304f40	0.68870926
22	0x3d29a356	0.041415535
23	0xbd024085	-0.031799812
24	0xc00e5f83	-2.2245796
25	0x3dc059ea	0.0939215
26	0xbf3b01f0	-0.7304983
27	0x3d3d1f67	0.046172526
28	0xbf6e91fe	-0.93191516
29	0x3e219841	0.15780737
30	0x3df4b238	0.11948055
31	0xbfca6aea	-1.5813878
32	0x3d787e76	0.060667478
33	0x3d276465	0.040867228
34	0x3ec7be0b	0.3901218
35	0xbfb287e0	-1.3947716
36	0xbeffb798	-0.49944758
37	0x3f1b0c90	0.60566044
38	0x3e16a737	0.14712225
39	0x3d0f18fa	0.03493593
40	0xbf898670	-1.0744152
41	0x3e4aadfc	0.19792932
42	0xbf3e7abe	-0.7440604
43	0x3cca2dbb	0.02468001
44	0xbf40eda0	-0.75362587
45	0x3e187702	0.14889148
46	0x3d822167	0.06354027
47	0xbf82cc88	-1.0218668
48	0x3d289571	0.041158143
49	0x3b29a008	0.002588274
50	0x3ebc2264	0.36744988
51	0xbfa8c162	-1.3184016
52	0xbf023c88	-0.50873613
53	0x3f6d9faf	0.9282178
54	0x3d1447a9	0.036201153
55	0x3cb54c0f	0.022130994
56	0xbf7adc0d	-0.9799202
57	0x3e0313ed	0.1280057
58	0xbf19f273	-0.60135573
59	0xbccc42fc	-0.024934284
60	0xbf8d4ff1	-1.1040021
61	0x3ded0c75	0.115746416
62	0x3ded4530	0.11585462
63	0xbf88fd16	-1.0702236
64	0xbf3352ab	-0.70048016
65	0xbf3fe8c1	-0.7496453
66	0xbe3fcdee	-0.187309
67	0x3d462ffa	0.048385598
68	0x3c9aed6a	0.018912036
69	0xbf9d2d1b	-1.227939
70	0xbf536dd0	-0.82589436
71	0xbfa7ad9a	-1.3099854
72	0xbfb53df2	-1.4159529
73	0xbf381d2d	-0.7191952
74	0x3e653b39	0.22385873
75	0xbfadc3e8	-1.3575411
76	0x3e620733	0.22073059
77	0xbf2e2950	-0.6803179
78	0xbf68f198	-0.9099364
79	0x3f19d08f	0.6008386
80	0xbe923c15	-0.28561464
81	0xbf17eaa7	-0.59342426
82	0xbe88126f	-0.26576564
83	0x3dcca293	0.09991946
84	0x3c4ed492	0.012623923
85	0xbfb16864	-1.3859982
86	0xbee30508	-0.44339776
87	0xbf98a0a5	-1.1924025
88	0xbfc4296b	-1.532514
89	0xbefa0af0	-0.4883647
90	0x3e4d3eb2	0.20043448
91	0xbf2ea849	-0.6822553
92	0x3e6ed4c3	0.2332335
93	0xbf3bd93d	-0.73378354
94	0xbf546a0e	-0.82974327
95	0x3f449366	0.7678741
96	0xbe9fa69a	-0.31181794
97	0xbf49317c	-0.7859113
98	0xbe6b62f5	-0.22986968
99	0x3d9ec8bf	0.07753133
100	0x3cc2fbe1	0.023801746
101	0xbf8420f7	-1.032256
102	0xbf6684c8	-0.9004636
103	0xbf9f1433	-1.2428039
104	0xbfcad3d5	-1.5845896
105	0xbf49466f	-0.786231
106	0x3e0601d1	0.1308663
107	0xbf813c3f	-1.0096511
108	0x3e7cb723	0.24679236
109	0xbf32eb84	-0.6989062
110	0xbf6f8219	-0.9355789
111	0x3f2b3f7f	0.6689376
112	0x3d9ec891	0.07753099
113	0x3daa8e9a	0.0832798
114	0x3ea8feb2	0.33006817
115	0xbf9f6f1f	-1.2455786
116	0xbf502bff	-0.8131713
117	0x3f4a3535	0.7898744
118	0x3e04da90	0.12974
119	0x3d825457	0.06363743
120	0xbf827bc9	-1.0194026
121	0x3dcc4dfb	0.09975811
122	0xbf3131ee	-0.6921681
123	0x3d680d5b	0.05665336
124	0xbf1ff8d4	-0.62489057
125	0x3df6793b	0.120348416
126	0x3d993d99	0.07482452
127	0xbf57bc79	-0.8427196

linear_stack.3.bias f4 [8]
0	0x3e322eaf	0.17400621
1	0x3e459ae9	0.19297375
2	0x3e0df97c	0.13864702
3	0x3e3f2d38	0.18669593
4	0x3ebc2b8d	0.36751977
5	0x3ebb6496	0.36600178
6	0x3e9d0cdf	0.30673882
7	0x3e414433	0.18873672

linear_stack.6.weight f4 [2, 8]
0	0xbe40b55b	-0.18819182
1	0xbe34225e	-0.17591235
2	0xbdc877d4	-0.097884804
3	0xbea7598a	-0.326855
4	0xbd983f1f	-0.074339144
5	0x3ec966ae	0.3933615
6	0x3d493fa7	0.04913297
7	0x3e2b4c76	0.16728386
8	0xbddac33c	-0.10681769
9	0xbd94c334	-0.072637945
10	0xbca7f2af	-0.020501463
11	0xbe795304	-0.24348074
12	0xbe94ccfe	-0.29062647
13	0x3e38e94d	0.18057747
14	0xbe2765cf	-0.1634743
15	0x3e9e4de5	0.30918804

linear_stack.6.bias f4 [2]
0	0xbe2c424d	-0.16822167
1	0xbe3535c3	-0.1769629
