models/model_c2_p[0.2, 0.2]_y5_w[1.0, 1.0]_b32_lr0.001_d0.5.pth (torch, 4581 bytes, 6 tensors)

linear_stack.0.weight f4 [16, 22]
000000 19 f3 90 bd b5 8e a6 3e f8 41 c4 3e 90 41 95 bf
       -0.07077617 0.32530752 0.3833158 -1.1660633
000010 1b f3 18 3d 9c 99 02 3f bf 37 de 3d ce ca 7e be
       0.03734122 0.5101564 0.108504765 -0.24882051
000020 8e da f5 3d 67 86 3d 3e 95 e3 fe be 20 3a ff be
       0.120045766 0.18508302 -0.49783006 -0.49849033
000030 a0 9a 1d bf 53 7e 52 3d 4b 6c 01 40 2b 06 d6 3e
       -0.61564064 0.051390003 2.0222347 0.4180158
000040 55 a5 9b 3f 6c c6 34 bf 55 10 28 bf a4 23 ec 3d
       1.215983 -0.7061527 -0.6564992 0.115302354
000050 fe d0 41 3f de f9 0a bf e8 e3 ed 3d 95 31 fc be
       0.7570952 -0.5428752 0.11615735 -0.49256578
000060 28 1c 98 3d 41 88 bf bd 7a 5d e0 be 10 21 23 3e
       0.074272454 -0.0935216 -0.43821317 0.15930581
000070 51 34 67 3e 98 c1 8f 3d 1e a0 ef bd e0 18 89 be
       0.22578551 0.07019347 -0.11700462 -0.2677679
000080 94 26 b4 3f 44 df 29 bd 16 19 27 3f 1d e4 11 3e
       1.4074273 -0.04147269 0.65272653 0.14247175
000090 37 b9 b7 be 85 4d 4d c0 53 98 89 be 8e bb 7a 3f
       -0.35883495 -3.2078564 -0.26874027 0.97942436
0000a0 f5 77 19 3f 66 8c 5a bf 31 ab 9d be 43 27 aa be
       0.59948665 -0.8537048 -0.3079467 -0.3323308
0000b0 f9 34 0e be 05 65 90 bd d7 ee 53 be 8c 9b b1 3e
       -0.13887395 -0.07050518 -0.20696579 0.34688985
0000c0 76 7a 93 3b 80 cc fb 3d 27 ca 85 bf cc a8 58 3e
       0.0045006825 0.12294865 -1.0452317 0.21158141
0000d0 38 43 d5 bd 23 0e 10 3f ef 84 be be 8a 09 6a be
       -0.104132116 0.5627157 -0.37210795 -0.22855201
0000e0 c5 0b 69 bf c0 2c b5 3e 5b a3 e8 3f 92 f6 8d 3f
       -0.91033584 0.35385704 1.8174852 1.1090872
0000f0 8a 15 83 3e bf 1a a9 bf 10 4c a3 bf e7 7c dc 3e
       0.2560237 -1.3211287 -1.2757587 0.43064043
000100 3c 99 6c 3e d1 08 3a be 67 a1 b2 bd b7 90 29 3f
       0.2310533 -0.18167426 -0.08722191 0.6623644
000110 7d 25 f7 be 3a 42 b4 bc ae 73 0f 3d 21 15 7a bf
       -0.4827079 -0.022004236 0.03502243 -0.9768849
000120 c3 2d b1 be 35 d9 0c 3e 6d f1 69 be ef 74 e1 3e
       -0.34605226 0.13754733 -0.22846003 0.44034526
000130 15 20 bd 3d 12 6b b5 3d 39 bc b5 be 12 97 36 be
       0.09234635 0.08858313 -0.35495165 -0.17831066
000140 1c 08 f4 3d 94 df 9f 3f 46 2f 73 be 26 e1 4e 3d
       0.11915609 1.2490106 -0.23748502 0.050507687
000150 9d 94 aa 3f 67 46 ac bf b8 be c8 3e 9f 5f 84 bf
       1.3326603 -1.3458985 0.39208007 -1.0341681
000160 e2 45 f3 bd 2e 29 03 3f bb f7 3e 3d 6e 3d 86 bf
       -0.118785635 0.5123471 0.046622973 -1.0487497
000170 c5 24 27 3d 33 91 c4 bd c7 e9 74 be d2 3f 48 3e
       0.04080655 -0.09598007 -0.23917304 0.19555596
000180 21 5d 09 be 4f 58 b4 3e 0a fe d0 be 91 d0 8c be
       -0.13414432 0.35223624 -0.40818816 -0.27502874
000190 43 a9 51 bd eb a1 04 be 13 91 8e 3f 4f 26 85 3f
       -0.05118681 -0.12952392 1.1138023 1.0402316
0001a0 3e 36 01 3f 18 47 45 bf bb 68 e3 be de 63 6a 3e
       0.5047339 -0.77061605 -0.4441584 0.22889659
0001b0 ff 3c 11 3f 6a ac 12 bf 49 1f 82 3e 18 f5 68 3e
       0.567337 -0.57294333 0.25414494 0.22749746
0001c0 e7 1c ed bf 9e 90 1f bd a7 1b fd bd a3 91 83 bf
       -1.8524445 -0.038956277 -0.1235879 -1.027882
0001d0 00 04 bf 3e 44 fd 8f 3e bf 1c 3a bf 76 ff ab 3e
       0.3730774 0.28122914 -0.72700113 0.3359334
0001e0 bb 73 96 be 22 64 25 3d ed 46 b0 be 23 14 96 be
       -0.2938517 0.040378697 -0.34429112 -0.29312238
0001f0 a9 74 0b 3f 41 32 06 40 cb b9 ed 3e cc 65 cf bf
       0.54474884 2.0968173 0.4643081 -1.6202941
000200 0c d1 37 bd 0a 13 8a 3d d6 56 9a bd 41 de e5 be
       -0.044877097 0.06741913 -0.07536094 -0.4489613
000210 0c f0 86 be 33 8e cb 3d 0f e1 b4 3e 53 94 68 3e
       -0.26355016 0.09939232 0.35327956 0.22712831
000220 e6 9c ad 3e 4a 7c 67 3e 5f d5 44 bf e8 7f fd 3e
       0.33908767 0.22606006 -0.7688808 0.49511647
000230 79 68 59 bf 87 b7 82 3f 4b 7b 6e be 74 8d d2 be
       -0.8492504 1.0212258 -0.2328922 -0.41123545
000240 cd a6 30 bf 6a e6 a0 3e 88 5b 18 bf e2 0f 82 3f
       -0.6900452 0.31425792 -0.59514666 1.0161097
000250 90 91 a1 3e 73 0d f6 be b8 0b b5 3f 9d 1b df bf
       0.31556368 -0.48057136 1.4144201 -1.7430302
000260 4e 8e f6 3d 93 03 3c bf 5e ae 6d be db 69 31 3f
       0.12038861 -0.73442954 -0.23211047 0.6930215
000270 84 d9 f9 3e 39 30 dc be b4 fd 2b 3e 9b 75 ba bc
       0.48798764 -0.4300554 0.16795999 -0.022761157
000280 4a b4 c1 bf 55 0a 67 3e d1 88 81 be 4f 3e 8c 3f
       -1.5133145 0.22562535 -0.25299695 1.0956515
000290 93 92 c2 be b4 0d db be 64 c3 24 be d8 1a 82 be
       -0.38002452 -0.42783892 -0.1609016 -0.25411105
0002a0 54 1b 28 bf 74 77 4e 3f b7 7b 61 3f bd 38 ed be
       -0.656667 0.8065102 0.880794 -0.4633235
0002b0 9b 8e 18 3f 2e 02 6f bf 15 67 0c 3f b9 ae d3 be
       0.595926 -0.933627 0.5484479 -0.4134424
0002c0 32 e6 30 3d 66 b2 0b 3f 82 ed 01 bc 02 06 ba be
       0.04318828 0.5456909 -0.007930161 -0.3633271
0002d0 e9 25 dd bd 63 5c c7 be 08 06 ae bd 03 38 18 3e
       -0.107982464 -0.38937673 -0.08497244 0.14865117
0002e0 b4 54 5b be bb f6 06 3f c6 3e cf bd f2 23 8c 3e
       -0.2141903 0.5272023 -0.10119395 0.27371174
0002f0 74 13 0c bf 73 6f 09 3e a3 36 c0 3f 87 8f c5 3f
       -0.54717183 0.13421421 1.5016674 1.5434426
000300 4e 18 0c bf ca 8c 0f be 59 54 07 c0 f5 9e 90 3f
       -0.54724586 -0.1401855 -2.1145232 1.129851
000310 bb c0 d8 3e 19 08 16 be be af 21 be e8 07 81 3e
       0.42334542 -0.14651527 -0.15789697 0.25201344
000320 29 af b0 be 0b 5c 63 bf 82 ac 6e be 33 f5 b4 be
       -0.34508637 -0.8881232 -0.23307994 -0.35343322
000330 6b 6d fb 3e d8 2b 6a 3d 45 a9 5e 3e 7c eb 88 be
       0.49106917 0.05717072 0.21744259 -0.2674216
000340 12 eb 12 be f4 b3 2a be ab ec 80 bd 72 9e d2 be
       -0.14347485 -0.16670209 -0.06295141 -0.4113651
000350 23 9a fd 3f a4 ac a5 3f dd 9a 56 be aa c6 f0 be
       1.9812664 1.2943311 -0.20957513 -0.4702657
000360 11 28 03 be 60 35 1c be 3b 03 b8 3e 5e c7 b1 bf
       -0.12808253 -0.15254736 0.35939965 -1.3888967
000370 e5 dc 3a 3d 6b 47 04 bf de 38 ce be 54 8c 31 bd
       0.045620818 -0.51671475 -0.4027776 -0.043346718
000380 f9 ef f2 bd 95 79 47 3d e0 6e b3 3e b9 fd 55 bd
       -0.118621774 0.048699934 0.35045528 -0.052243922
000390 03 40 7a 3e 6b ba 35 c0 d4 1f 1a 40 2f 23 ee 3f
       0.24438481 -2.839503 2.4081926 1.8604487
0003a0 cd 97 46 be 54 54 07 3e b3 45 50 bf e7 03 c2 bf
       -0.19393845 0.13215762 -0.8135635 -1.5157441
0003b0 77 90 bd 3e f3 c0 63 3c cc a3 9c be 7c 2e c0 bf
       0.3702428 0.013900983 -0.30593717 -1.5014186
0003c0 c0 95 4d 3e 37 d8 7a 3e 37 c6 80 be 26 ac c8 bf
       0.20076656 0.24496542 -0.25151226 -1.5677536
0003d0 35 05 1b bf 3f c0 f9 3e e3 78 36 3e 15 39 f3 bc
       -0.6055482 0.48779485 0.17819552 -0.029690305
0003e0 a9 a2 32 3f 62 91 f0 bc 0e 2a 3e be 7b 9b 98 3e
       0.6977945 -0.029366199 -0.1857073 0.29806122
0003f0 19 46 87 be 9f 2f bb be 62 e9 5b bf b3 f3 16 bf
       -0.26420668 -0.3655977 -0.8590299 -0.58965605

linear_stack.0.bias f4 [16]
000000 f1 96 73 bf 28 41 12 c0 2a 58 ad bf cd 83 81 bf
       -0.95152193 -2.2852268 -1.354253 -1.0118347
000010 e7 e2 24 3d 7e cc 77 bf 6e 49 d1 bf 26 98 b8 bf
       0.040255453 -0.96796405 -1.6350534 -1.4421432
000020 af 2d 06 bf 41 34 7d bf ec 05 b7 bf 3d f9 1b c0
       -0.5241346 -0.9890786 -1.4298682 -2.4370873
000030 d5 49 10 c0 b5 e3 af bf 25 71 24 c0 16 a8 7a bf
       -2.2545063 -1.3741366 -2.5694058 -0.9791273

linear_stack.3.weight f4 [8, 16]
000000 5c de da be 15 b4 1d 3e 49 01 be be ee 19 6e be
       -0.42747772 0.15400727 -0.37110355 -0.23252079
000010 ca b8 69 be 85 a6 fa be 2c a7 64 bf 9e 9f 01 bf
       -0.22824398 -0.4895517 -0.89317584 -0.5063418
000020 00 df 3c bf 4a c4 c2 be 24 41 e4 3d 93 87 92 be
       -0.7377777 -0.38040382 0.11145237 -0.2861906
000030 ea 4f 57 3e 3c c8 a5 be c1 a1 55 bf 01 0d 8d 3d
       0.21026579 -0.3237933 -0.8344994 0.06887246
000040 89 35 c6 3d 6c 05 47 be ee a7 9d 3d f7 b6 d4 3d
       0.0967818 -0.19435662 0.07698046 0.1038646
000050 d1 7b 9a 3d 34 e2 a6 3c 45 d0 d8 3c b7 50 8b 3d
       0.07543147 0.020371534 0.026466498 0.068025045
000060 06 6e 77 3d 6d 89 f9 3d 17 1d ce be 49 0a 23 3e
       0.06040766 0.12184415 -0.4025657 0.15921892
000070 89 dc a6 be fb 47 6e 3d aa 16 9c 3e a5 47 30 be
       -0.3259013 0.058174115 0.3048604 -0.1721483
000080 7b 2c 25 3d 0a 99 4b be d3 a7 c6 3d 11 94 62 3d
       0.040325623 -0.19882599 0.09699979 0.05531699
000090 b5 0d 70 3d 89 f6 9a 3c d0 1a 2e be 4c 3e 9c 3d
       0.058606822 0.018916385 -0.17002416 0.0762907
0000a0 c8 a8 ed 3c 7a 01 e6 3d 9b 4b 88 be 68 29 2c 3e
       0.029011145 0.112307504 -0.26620182 0.1681267
0000b0 69 d3 9d be 16 b8 4d 3d 0f f3 a4 3e 48 54 cb bd
       -0.30825356 0.050224386 0.3221669 -0.09928185
0000c0 b7 c0 e1 3d 05 e1 99 be 3c 87 f9 3c ea 69 ce 3b
       0.110230856 -0.3005449 0.030459993 0.006299247
0000d0 7c ad 53 3d 73 7c a6 3d 96 da a3 3d f3 7e 1f bb
       0.05167912 0.081292056 0.08000676 -0.0024337142
0000e0 11 8b 8e 3d a4 cc ba 3d 64 59 84 be 59 02 30 3e
       0.069601186 0.09121063 -0.2584945 0.17188396
0000f0 4a 2c 98 be 75 89 cf 3d be a6 95 3e 97 a0 4e be
       -0.2972129 0.1013364 0.29228777 -0.20178448
000100 97 ec ce be 17 03 67 3e 5d 25 e1 be c1 2d a5 be
       -0.4041488 0.22559772 -0.43973818 -0.3226147
000110 98 13 69 be bb c5 45 bf 7c 7f 25 bf 93 d9 eb be
       -0.2276138 -0.7725484 -0.6464765 -0.46064433
000120 ec 3c 83 bf ae 5a 51 bf 15 10 15 3e af 7b 91 be
       -1.0252967 -0.8177899 0.14556916 -0.28414676
000130 87 32 8d 3e b0 f3 e9 be 10 ef cd be c2 4a c4 3d
       0.27577612 -0.4569373 -0.40221453 0.095845714
000140 36 d4 5a 3d 69 49 51 be 08 26 eb 3d 0d 1b a8 3d
       0.053425036 -0.2043816 0.11481863 0.082082845
000150 d3 13 95 3d a3 9d 8a bc 6f d1 b9 3d 22 a5 5d 3d
       0.07279172 -0.01692087 0.090731494 0.05411256
000160 3b de 12 3c ac de 14 3e e6 a0 47 be 18 88 f9 3d
       0.008964117 0.14538068 -0.19494972 0.12184161
000170 a9 e9 96 be 8b 81 2a 3d ab 9a f6 3e 42 30 57 be
       -0.29475144 0.041627448 0.48164877 -0.21014503
000180 5c 59 e8 be 9b 3d 2e 3e 2c 9d fa be 47 c5 c3 bd
       -0.45380676 0.17015688 -0.48948038 -0.09559112
000190 b5 d1 2a be e0 2c b1 be 39 a6 da be 22 36 a6 be
       -0.1668156 -0.3460455 -0.42704943 -0.32463175
0001a0 f1 a1 0a bf 25 8b 0f be 33 f2 35 3e 28 17 c3 be
       -0.5415335 -0.14017923 0.17768173 -0.38103604
0001b0 cf 55 43 3e 75 5f cc be 13 57 3a bf cc 98 d0 3d
       0.19075702 -0.39916578 -0.72789115 0.10185394
0001c0 44 76 70 3d 7f d5 ed bd 0a 35 15 3d 45 01 84 3d
       0.058706537 -0.11612987 0.036427535 0.06445555
0001d0 14 ed 96 3d 61 ed 84 3d f4 e3 9d 3d 4d 38 cf 3d
       0.07369438 0.06490589 0.07709494 0.101181604
0001e0 db e4 71 3d 8a de b8 3d 52 db 14 be b0 f6 4c 3e
       0.059056144 0.09026821 -0.14536789 0.20015979
0001f0 9e 63 88 be d0 50 5a 3d 07 9b 7b 3e 02 85 e6 bd
       -0.26638502 0.053299725 0.24570857 -0.11255838

linear_stack.3.bias f4 [8]
000000 04 e1 ce 3e 54 6d 4f 3c cd 89 1e 3d 34 04 fa 3c
       0.40406048 0.012660343 0.038705636 0.030519582
000010 3f fa d6 3e ea f9 a7 3d d2 d9 d9 3e df d8 af 3d
       0.41987798 0.08201964 0.42548996 0.08586287

linear_stack.6.weight f4 [2, 8]
000000 8b 6f 6f bd 72 e4 31 be c7 b5 af bd be fe a0 be
       -0.058455985 -0.17372301 -0.08579593 -0.31444353
000010 86 62 b4 bd ab ed 71 3e 2d 9c 32 3d ad 4e 5c 3e
       -0.08807854 0.2362582 0.043605972 0.21514387
000020 94 3e 72 be c3 40 99 bd b8 82 05 bd f3 06 83 be
       -0.23656684 -0.074830554 -0.032595366 -0.2559124
000030 a9 c3 8d be 04 e3 ac 3e 27 bd 21 be 98 cc 85 3e
       -0.2768834 0.3376695 -0.15794812 0.26132655

linear_stack.6.bias f4 [2]
000000 40 06 33 be 36 73 2e be
       -0.17482853 -0.17036137
