models/model_c2_p[0.05, 0.05]_y5_w[1.0, 1.0]_b32_lr0.001_d0.5.pth (torch, 4581 bytes, 6 tensors)

linear_stack.0.weight f4 [16, 22]
0.032931466 0.40069598 -0.15538815 -0.5261687 -0.15292391 -0.4176089 0.15097448 0.20440044
-0.10503926 -0.22111578 -0.2418483 0.016475968 -0.20933858 -0.28899392 1.2976488 0.32937387
-0.023418523 0.12570335 -0.23844922 -0.07112097 0.3091194 -1.01549 -0.0040324433 -0.51128376
-0.036529247 -0.0656321 0.12684447 0.046023928 0.24195355 0.2202591 0.19143307 -1.061792
0.28929114 0.10251227 0.2191156 -0.03896685 -0.20460168 0.44265124 -0.27665856 -0.5687869
-0.33668536 -1.5019842 0.029420217 0.1050792 0.03457307 -0.34282693 -1.1257851 0.12790963
-0.039068464 -0.13650085 -0.016741753 0.16011189 -0.2779318 0.25130376 -0.31618792 -0.041880615
-0.16342236 -0.016590644 1.2178155 0.8713915 -0.17760639 -0.3690022 -0.41722155 0.25111333
0.15577573 -0.4105194 0.106279984 -0.46414056 -0.10644929 0.25464347 0.31866926 -0.09208496
0.032713465 -0.059031546 -0.32380518 0.46139565 -0.08722973 -0.08686278 -0.0557536 0.011685524
-0.8580461 0.3790923 0.041350737 -0.69872445 0.9812277 -0.71277064 0.20229672 -0.4484752
-0.014046502 0.55839247 -0.2558024 -0.47585523 -0.07513372 0.1595585 -0.16652778 -0.03967066
0.10507788 0.030310053 -0.067723475 -0.066130266 0.31887618 -0.16070114 1.0741663 1.0649614
0.019030683 -0.65635735 -0.055403832 0.27109942 -0.17418467 -0.34700108 0.107304744 0.5634117
-0.035879243 0.13765131 0.010246496 -0.9388636 -0.14012316 -0.18473734 0.12997186 0.4974272
-0.19008364 -0.3960554 -0.5176438 0.13190463 1.2203535 0.45406932 0.3858275 -0.3977126
-0.44352052 0.41256678 0.32743984 -0.22886886 0.5924179 0.52229416 -0.47432223 0.07142468
0.48459515 0.10739354 0.35179737 -0.18137251 -0.011768974 0.3950741 0.33615172 0.1716378
-0.2796269 0.09715365 -0.30501476 0.48946962 -0.016422855 -0.6936401 0.340727 0.3208314
-0.17338946 -0.59633875 -0.14898749 0.42593026 0.23147874 0.009415856 0.2284168 0.67847896
-0.018000865 -0.48492694 -0.30366233 0.55347896 0.3575322 0.4152626 0.011669488 -0.29997805
-0.9964352 0.30677608 0.13314785 -0.44406667 0.71796685 0.24804671 -0.077771135 -0.3177506
-0.017066471 0.57365566 -0.10938098 0.025700243 -0.023936594 -0.23560677 -0.08860481 0.09182193
-0.074035786 0.21450488 0.061382875 -0.07030331 -0.30785167 -0.13386773 1.2921578 0.826543
0.20094311 -1.1164591 -0.8276402 0.5214615 0.09317254 -0.20887505 -0.19077253 0.35044134
0.17115416 -1.1667795 0.21082303 0.25123942 -0.49570164 -0.42336053 0.2132645 0.10900138
-0.13204858 -0.357039 -0.5693365 0.14505304 0.6789383 0.53563106 0.024200637 -0.11244699
0.15574275 -0.067207105 0.5773496 -0.5015823 0.29982325 -0.009206865 -0.3045049 -0.06293504
0.09626111 -0.012752062 0.12895076 -0.076791085 0.11733502 0.06754076 -0.6526445 0.5990039
-0.024979753 0.4233632 -0.79821914 0.23452218 -0.14343975 -0.041001562 0.26496613 -2.2518744
-0.18754403 0.30567813 -0.24637571 0.35364985 -0.12662163 -0.526042 0.029998962 0.11534099
0.1436648 -0.23347302 0.07972158 -0.103967614 -0.08126505 0.11688656 -0.5531198 -0.14577487
00000000: 25e3 063d 0628 cd3e 121e 1fbe feb2 06bf
00000010: 1698 1cbe d5d0 d5be 0e99 1a3e 594e 513e
00000020: d31e d7bd 2d6c 62be 15a7 77be 9cf8 863c
00000030: da5c 56be 03f7 93be 5b19 a63f b1a3 a83e
00000040: 34d8 bfbc 61b8 003e 082c 74be dfa7 91bd
00000050: e644 9e3e 94fb 81bf 9622 84bb 7ee3 02bf
00000060: b19f 15bd 1f6a 86bd 84e3 013e 9683 3c3d
00000070: acc2 773e 9a8b 613e 0807 443e cde8 87bf
00000080: f81d 943e f4f1 d13d d75f 603e b49b 1fbd
00000090: 1a83 51be 2fa3 e23e 31a6 8dbe 059c 11bf
000000a0: 0662 acbe 0541 c0bf ab02 f13c c333 d73d
000000b0: 7e9c 0d3d 0387 afbe ba19 90bf befa 023e
000000c0: 4106 20bd e1c6 0bbe 0026 89bc 5ff4 233e
000000d0: 144d 8ebe e3aa 803e 62e3 a1be 028b 2bbd
000000e0: 3158 27be 1ae9 87bc 61e1 9b3f 8313 5f3f
000000f0: 73de 35be dbed bcbe 109e d5be ed91 803e
00000100: ac83 1f3e 992f d2be 52a9 d93d d5a3 edbe
00000110: 1602 dabd a160 823e 9e28 a33e 0a97 bcbd
00000120: 8efe 053d 10cb 71bd cbc9 a5be 0d3c ec3e
00000130: 80a5 b2bd 1de5 b1bd e35d 64bd a474 3f3c
00000140: e9a8 5bbf 6318 c23e 645f 293d 9bdf 32bf
00000150: bd31 7b3f 2378 36bf df26 4f3e 8b9e e5be
00000160: 4d23 66bc cff2 0e3f 88f8 82be 4ca3 f3be
00000170: b5df 99bd 4e63 233e 4286 2abe b47d 22bd
00000180: 1233 d73d ca4c f83c 9bb2 8abd 4e6f 87bd
00000190: bd43 a33e d78e 24be 487e 893f a850 883f
000001a0: 3ce6 9b3c 0907 28bf 21ef 62bd 8bcd 8a3e
000001b0: 775d 32be 20aa b1be 97c2 db3d c03b 103f
000001c0: 1df6 12bd 77f4 0c3e ebe0 273c 5d59 70bf
000001d0: 727c 0fbe c92b 3dbe 5817 053e c7ae fe3e
000001e0: 49a5 42be c6c7 cabe 4e84 04bf 0212 073e
000001f0: 8b34 9c3f c67b e83e 2f8b c53e fca0 cbbe
00000200: 1f15 e3be f43b d33e 32a6 a73e 995c 6abe
00000210: b3a8 173f 12b5 053f 5dda f2be 1a47 923d
00000220: db1c f83e 25f1 db3d c91e b43e b7b9 39be
00000230: a8d2 40bc 2747 ca3e 141c ac3e d2c1 2f3e
00000240: 422b 8fbe 7ef8 c63d e52a 9cbe c39b fa3e
00000250: 3989 86bc 6692 31bf c573 ae3e 0344 a43e
00000260: 028d 31be a8a9 18bf 2d90 18be 8813 da3e
00000270: c308 6d3e f644 1a3c 18e6 693e ccb0 2d3f
00000280: 8d76 93bc 5848 f8be a179 9bbe ccb0 0d3f
00000290: 760e b73e 4d9d d43e 6131 3f3c b996 99be
000002a0: 6116 7fbf c111 9d3e e957 083e b55c e3be
000002b0: adcc 373f f5ff 7d3e 7946 9fbd 35b0 a2be
000002c0: fcce 8bbc 19db 123f 2303 e0bd 5189 d23c
000002d0: ad16 c4bc e742 71be 7076 b5bd 230d bc3d
000002e0: 13a0 97bd 2ba7 5b3e 9c6c 7b3d 2ffb 8fbd
000002f0: bc9e 9dbe 9f14 09be 6d65 a53f 5298 533f
00000300: 08c4 4d3e 22e8 8ebf 3ae0 53bf 807e 053f
00000310: 3fd1 be3d 57e3 55be e059 43be 0c6d b33e
00000320: 0943 2f3e 0859 95bf fee1 573e 74a2 803e
00000330: 9bcc fdbe b6c2 d8be 0262 5a3e 1e3c df3d
00000340: be37 07be d1cd b6be 09c0 11bf c988 143e
00000350: e7ce 2d3f 1e1f 093f 6a40 c63c 9c4a e6bd
00000360: 077b 1f3e e1a3 89bd 2fcd 133f b367 00bf
00000370: 6f82 993e 64d8 16bc 11e8 9bbe 16e4 80bd
00000380: 8b24 c53d 06ee 50bc ab0b 043e a544 9dbd
00000390: 584d f03d cf52 8a3d b613 27bf 5258 193f
000003a0: 57a2 ccbc 10c3 d83e 1758 4cbf 9526 703e
000003b0: dfe1 12be 41f1 27bd a4a9 873e b61e 10c0
000003c0: 8b0b 40be d881 9c3e ea49 7cbe 9811 b53e
000003d0: 1aa9 01be b0aa 06bf 62c0 f53c e637 ec3d
000003e0: de1c 133e 8d13 6fbe 1145 a33d f9ec d4bd
000003f0: 4a6e a6bd 3962 ef3d 4299 0dbf 0246 15be

linear_stack.0.bias f4 [16]
-1.380998 -1.187881 -0.9690401 -1.3436675 -0.8808196 -0.74607843 -1.1012701 -0.81964594
-0.5271313 -1.1919367 -0.5442479 -1.1162168 -1.933717 -0.8012381 -0.6395435 -1.720959
00000000: 8bc4 b0bf 7c0c 98bf 0313 78bf 4cfd abbf
00000010: 657d 61bf fffe 3ebf 6bf6 8cbf 51d4 51bf
00000020: 14f2 06bf 6291 98bf d553 0bbf 31e0 8ebf
00000030: 0a84 f7bf f11d 4dbf 1fb9 23bf 6248 dcbf

linear_stack.3.weight f4 [8, 16]
-0.7204463 0.15003873 -0.57538307 -0.10736415 -0.4204627 -0.60433877 -0.7615529 -0.67732376
-0.42297876 -0.7851703 0.08419807 -1.0654017 0.3298062 -0.57786703 -0.6044142 -0.80483264
0.24769828 -0.03352798 0.16666606 0.21795197 0.062504195 0.088476196 0.00429878 -0.020275349
0.12340488 0.10192553 -0.80576575 0.14916702 -0.17123568 0.106309384 0.042371623 0.31904006
0.18009609 -0.060574926 0.061398286 0.20425096 0.06478977 0.09050226 -0.052470695 -0.0071368036
0.07110536 0.116027646 -1.007869 0.2731064 -0.110292345 0.064953774 0.07840435 0.2380914
0.23140252 -0.049217325 0.13249584 0.26388177 0.053189512 0.043229364 -0.03593659 -0.00025383016
0.049604528 0.04215478 -1.3494201 0.29177287 -0.108884305 0.12750185 0.068472624 0.21900247
-0.7260323 0.14347242 -0.51510435 -0.9273821 -0.4808086 -0.33136705 -0.82211936 -0.7773227
-0.2108261 -0.77517885 0.03885816 -0.9494842 0.34934604 -0.38927042 -0.53190356 -0.85119796
0.2528692 -0.05109527 0.15381403 0.26490843 0.080804795 0.093568616 -0.001788479 -0.05006465
0.115682356 0.058644332 -1.0428336 0.16658814 -0.13849673 0.085244164 0.09221515 0.16684875
-0.5269262 0.16802908 -0.57482374 -0.81707263 -0.4520358 -0.28587595 -0.82901055 -0.3544259
-0.63178444 -1.0786698 0.13936289 -1.1170223 0.38947347 -0.5724971 -0.5464724 -0.63309646
0.31933796 -0.01486916 0.11060616 0.22101776 0.07560209 0.07876621 0.0005377112 0.0061668577
0.05714585 0.11704282 -0.900889 0.18457003 -0.09293842 0.10987143 0.07458391 0.21100761
00000000: 2b6f 38bf c1a3 193e 4e4c 13bf bce1 dbbd
00000010: e346 d7be f2b5 1abf 21f5 42bf 1765 2dbf
00000020: ac90 d8be ec00 49bf 0a70 ac3d 155f 88bf
00000030: 5cdc a83e 18ef 13bf e4ba 1abf 8309 4ebf
00000040: 9ea4 7d3e a354 09bd 82aa 2a3e cd2e 5f3e
00000050: 3302 803d 0233 b53d c8dc 8c3b 7d18 a6bc
00000060: b3bb fc3d 55be d03d aa46 4ebf 3dbf 183e
00000070: 6858 2fbe bcb8 d93d de8d 2d3d 3859 a33e
00000080: 1c6b 383e 6a1d 78bd c57c 7b3d 2a27 513e
00000090: 80b0 843d 4059 b93d 83eb 56bd d9db e9bb
000000a0: b09f 913d e79f ed3d da01 81bf 9ad4 8b3e
000000b0: f4e0 e1bd 7c06 853d 7692 a03d 3bce 733e
000000c0: c8f4 6c3e 1b98 49bd fdac 073e 831b 873e
000000d0: 3fdd 593d 4611 313d 3f32 13bd 8214 85b9
000000e0: 1e2e 4b3d 7eaa 2c3d ccb9 acbf 4163 953e
000000f0: bcfe debd d88f 023e 603b 8c3d 2f42 603e
00000100: 41dd 39bf 6fea 123e e1dd 03bf ea68 6dbf
00000110: 8b2c f6be f1a8 a9be 6a76 52bf 9ffe 46bf
00000120: cce2 57be 1f72 46bf bc29 1f3d 6611 73bf
00000130: 7cdd b23e 744e c7be d52a 08bf 1ce8 59bf
00000140: 1278 813e 4649 51bd 6d81 1d3e 14a2 873e
00000150: fc7c a53d e7a0 bf3d 666b eaba 9710 4dbd
00000160: dfea ec3d 0a35 703d 927b 85bf 1596 2a3e
00000170: 16d2 0dbe 7e94 ae3d 4cdb bc3d 66da 2a3e
00000180: a3e4 06bf d10f 2c3e a627 13bf ac2b 51bf
00000190: 3d71 e7be 555e 92be 093a 54bf 5077 b5be
000001a0: a0bc 21bf da11 8abf 25b5 0e3e 96fa 8ebf
000001b0: 1169 c73e 2c8f 12bf 9de5 0bbf 9c12 22bf
000001c0: 4480 a33e c79d 73bc 7b85 e23d 7b52 623e
000001d0: 45d5 9a3d 2e50 a13d 30f5 0c3a 5a13 ca3b
000001e0: c411 6a3d 25b4 ef3d a9a0 66bf edff 3c3e
000001f0: 8056 bebd 4604 e13d 73bf 983d 6112 583e

linear_stack.3.bias f4 [8]
0.3892454 0.005527287 0.020163203 0.011179654 0.3936112 0.02481506 0.39730883 0.027320025
00000000: 2c4b c73e 3e1e b53b 4d2d a53c de2a 373c
00000010: 6887 c93e f448 cb3c 106c cb3e 3fce df3c

linear_stack.6.weight f4 [2, 8]
0.09469946 -0.16252401 -0.10430005 -0.33333305 0.039916005 0.23263839 0.17186376 0.1985163
-0.3897063 -0.086020395 -0.014089865 -0.23701262 -0.40487742 0.34129557 -0.28619975 0.2779517
00000000: caf1 c13d b26c 26be 449b d5bd a1aa aabe
00000010: f77e 233d c238 6e3e 0efd 2f3e db47 4b3e
00000020: 9687 c7be 762b b0bd 2dd9 66bc 70b3 72be
00000030: 184c cfbe 4bbe ae3e c688 92be af4f 8e3e

linear_stack.6.bias f4 [2]
-0.17516643 -0.17001684
00000000: d45e 33be e518 2ebe
