models/model_c3_p[0.2, 0.2, 0.2]_y5_w[1.0, 1.0, 1.0]_b32_lr0.001_d0.5.pth (torch, 4581 bytes, 6 tensors)

linear_stack.0.weight f4 [16, 22]
000000 39 bf 67 bd 92 25 4c 3e 9b 75 4d bd 81 90 5d be
       -0.05657885 0.19936207 -0.050160985 -0.21637155
000010 74 a0 9c bd 12 36 a5 bc 4c 34 41 3d 36 fa 80 bd
       -0.076477915 -0.020167384 0.047169015 -0.06297724
000020 0c f1 e2 bd fe 5d 92 3e 7f 5b 15 3d 9b 9b 3a bf
       -0.11081132 0.28587335 0.03646421 -0.72893685
000030 75 f2 14 be 2a f8 44 be 87 f7 b2 3f 8b 3f 71 3f
       -0.14545615 -0.19235292 1.3981789 0.94237584
000040 0c 48 44 bc 94 eb ae be 84 56 af be fb e3 8a 3e
       -0.011980068 -0.34164107 -0.34245694 0.2712706
000050 94 66 ff 3d 91 86 02 be 81 86 5c 3e e9 5c 0b 3f
       0.12470737 -0.12746646 0.21535684 0.54438645
000060 e9 b4 46 bc f7 86 23 3b f0 72 cd 3d e2 d9 62 be
       -0.012128093 0.0024952271 0.10031688 -0.22153428
000070 37 de b6 bd 31 08 80 3e a0 cf 5a be fc 90 e8 3e
       -0.08929103 0.2500625 -0.21368265 0.45423114
000080 11 8d 2b 3c 68 c4 26 bf 7f 3d 70 be f5 4d 6c 3d
       0.010470645 -0.6514344 -0.23460959 0.057691533
000090 b6 61 57 3f d4 6a 2b 3f f5 a2 f6 3e 12 2d ec be
       0.8413347 0.6695988 0.481712 -0.46128136
0000a0 8b a5 94 3d 86 28 2e 3e cf 50 e9 3a c2 e8 a2 bd
       0.07258137 0.17007646 0.0017800572 -0.07954551
0000b0 88 ac 8c be 7f 2f d0 be 28 2d 8d bd 57 f7 65 bf
       -0.2747538 -0.40661237 -0.068933785 -0.89830536
0000c0 7e 42 ce bc 97 f0 a0 be 82 7f 02 3c dc bb c7 3d
       -0.02517819 -0.31433555 0.007964971 0.09752628
0000d0 22 69 d4 bb 59 23 0b 3f b3 ff dc be dc d5 ab be
       -0.0064822594 0.5435081 -0.43163833 -0.335616
0000e0 45 95 73 be 57 3f 08 be 31 84 a2 3f 05 eb 63 3f
       -0.2378741 -0.13305412 1.2696592 0.89030486
0000f0 1b 68 a9 3e 75 b2 9a be 48 6a 30 be 78 39 b6 3e
       0.3308724 -0.30214277 -0.17228043 0.3559072
000100 f7 3e c0 3d 1d 20 f7 3d 72 79 94 be 39 18 02 3d
       0.093870096 0.12066672 -0.28998905 0.03176138
000110 cd e2 93 be a0 84 75 3d f9 4c 4b 3e 6d 7e 4f 3e
       -0.28883973 0.059940934 0.19853581 0.20263071
000120 c3 69 e3 bb ed 49 39 3e 9f fb 4a bf 9f a0 44 3e
       -0.006940098 0.18094607 -0.79290193 0.19201897
000130 0c 4a d8 3d 84 d7 24 3f ec fb 05 3f e6 b7 e7 be
       0.10560998 0.6439135 0.5233753 -0.4525749
000140 77 57 32 c0 87 cd 87 3e 4c 2a 67 be 56 90 52 3e
       -2.7865884 0.26523992 -0.22574729 0.20562872
000150 17 40 1e bd e8 67 43 3f 52 80 f5 bd 27 f4 3f 3d
       -0.03863534 0.76330423 -0.11987366 0.0468637
000160 a6 24 aa 3c da 28 2f be ce 90 29 bf 4d 0a be 3c
       0.020769428 -0.17105427 -0.6623658 0.023198271
000170 0a 5d 38 bd 60 e3 b5 be 38 8f 10 3f e9 9b 08 bf
       -0.045010604 -0.35525036 0.56468534 -0.533629
000180 32 b1 85 bf 1f af b4 be 5e 27 60 3e 88 a3 86 bd
       -1.0444701 -0.35289857 0.21890017 -0.0657416
000190 b4 d0 72 be 08 b1 b3 bc d4 85 98 3f 2f 9d a1 3f
       -0.23712426 -0.021935001 1.1915841 1.2626094
0001a0 7e d3 05 bf a3 c7 7d be c5 f9 75 3e f6 d0 59 3e
       -0.52275836 -0.24783187 0.24021061 0.21271119
0001b0 5a c0 2f 3e 64 96 dc be c5 e4 d0 3e 39 79 b2 bf
       0.1716322 -0.4308349 0.40799537 -1.3943244
0001c0 8f e5 ce be 68 3a 8f be 33 9f 08 3e 3d 1e 56 be
       -0.40409514 -0.27974248 0.1334198 -0.20909972
0001d0 c9 e7 86 3e 33 89 84 bd 92 41 a8 3e 20 35 c6 bd
       0.26348713 -0.06471481 0.32862526 -0.096781015
0001e0 6f 0c 26 bf 1c 0e 3d 3f 04 9a ee bc 77 91 4f be
       -0.6486272 0.73849654 -0.029126175 -0.20270334
0001f0 ca d4 7d bf 91 07 cf bf 5f 6b c2 be 6d 8f 62 3e
       -0.99152815 -1.6174184 -0.37972543 0.22125025
000200 67 a7 45 bd 52 c9 23 c0 ef 9a 6d be 4b 21 8a bd
       -0.04825535 -2.5591626 -0.23203634 -0.067446314
000210 1b bd 89 be 35 8e ae 3c 04 0d 2d be 39 40 0d bf
       -0.2690209 0.021308044 -0.16899496 -0.5517612
000220 b9 04 09 3e 27 72 c0 bc d7 72 16 be b3 34 aa 3c
       0.13380708 -0.023491932 -0.14692245 0.020777082
000230 0c e4 b1 be 53 41 4b 3f 35 3e b0 bd 6d e4 0d 3f
       -0.34744298 0.7939655 -0.08605615 0.55426675
000240 32 08 d1 3e a5 5a ae be ca e7 21 c0 e7 d6 89 be
       0.40826565 -0.3405353 -2.5297723 -0.2692177
000250 90 03 58 bf 33 71 7f 3f 8f 7b dc be 67 c1 64 3f
       -0.84380436 0.99782103 -0.43063018 0.8935761
000260 0b 1e 8e 3e 35 75 ac be 86 4c af 3e 88 f8 f0 3e
       0.27757296 -0.33683172 0.3423807 0.47064614
000270 9f 44 41 be 11 87 05 3e ba 1d d2 3c 87 49 32 be
       -0.18873833 0.13039805 0.02564894 -0.17410861
000280 8f d3 91 bd 66 2e 97 3e 53 76 c9 be 59 59 e7 3e
       -0.0712043 0.29527587 -0.39348087 0.45185354
000290 a0 3c cf 3e 9a 67 e8 bd 2a a5 18 bd 99 33 b9 3d
       0.4047594 -0.113478854 -0.037266888 0.090430446
0002a0 bf 17 f0 bf 02 59 27 bd 95 2f 83 bd 95 38 6f 3e
       -1.8757247 -0.04085637 -0.0640556 0.23361428
0002b0 78 d6 e6 be d6 1d 54 3f 46 23 80 be 99 e5 bc 3e
       -0.45085502 0.82858026 -0.25026911 0.3689392
0002c0 0b 1a 46 be 39 c7 c1 3e f8 4e 44 3e 8a db 0e be
       -0.19345872 0.37847307 0.19170749 -0.13950935
0002d0 9e e1 76 bd 4e 10 c9 3d 74 81 14 be ca d1 8a bd
       -0.06027376 0.09817563 -0.14502507 -0.06778295
0002e0 c0 72 92 bd 52 cc 85 be 1d 47 4b be b0 13 d7 ba
       -0.07150793 -0.26132447 -0.19851346 -0.0016409066
0002f0 5e d7 d5 3d 31 0a 33 be 24 82 ca 3f 0a a7 98 3f
       0.10441469 -0.17484356 1.5820966 1.1925976
000300 2e 32 03 bf b3 7d 26 3d e2 5a 7e bc ac 0a a9 3e
       -0.51248443 0.04064722 -0.015524598 0.33015954
000310 f1 cc 74 3d bb 66 24 be ba cb 18 bf e1 0e 93 3e
       0.05976576 -0.16054814 -0.5968586 0.2872229
000320 0b 06 98 bf 72 ae 09 3d 2e 94 4a ba be 06 0c be
       -1.1876844 0.03361363 -0.0007727769 -0.13674447
000330 f4 7e fb be 1a 0b d1 3b df 86 e1 bd 34 5f dc 3d
       -0.49120295 0.0063794972 -0.11012053 0.10760346
000340 83 3e 23 be 89 01 68 be 50 a5 11 3e 69 0e 6b be
       -0.15941815 -0.22656836 0.14223218 -0.22954716
000350 8e 03 86 3f a2 9b 57 3f 8f 92 9e be 31 7f 00 bd
       1.0469835 0.8422185 -0.3097119 -0.0313713
000360 67 15 d6 3e 28 d7 92 bd e8 03 9d 3e 4b b6 c1 be
       0.41813204 -0.07169944 0.30667043 -0.3783439
000370 85 58 c4 3e e2 6c 78 bf 38 7a 11 bf 50 00 97 be
       0.38348785 -0.9704114 -0.56827116 -0.29492426
000380 d9 6f 69 bd 41 f9 10 be 71 69 b6 3e 1c 5b 3c be
       -0.05699143 -0.14157583 0.3562732 -0.1839413
000390 cd ae 96 3e aa 90 47 bf c9 3c 12 bf e3 6d 47 3f
       0.29430237 -0.77955115 -0.57124 0.7790205
0003a0 d5 95 ed be 49 ad 89 3e a5 6b 0e bf a7 fb a5 3e
       -0.46403375 0.2689002 -0.55633 0.32418558
0003b0 5f a0 a4 bf 6f c7 c1 3e 6d 88 2b bf 0d 56 3c c0
       -1.2861441 0.37847468 -0.67005044 -2.9427521
0003c0 3c da a0 be b7 4e a9 bd 8d 5c 48 be 55 06 3d 3e
       -0.314165 -0.08266967 -0.19566555 0.18459447
0003d0 dc e0 cc bb 3c 49 47 be 45 ef b4 bd 33 40 17 3e
       -0.0062523913 -0.1946153 -0.088346995 0.14770584
0003e0 0a 69 10 be 62 d4 48 bd a3 09 ad 3d 8d e6 8b be
       -0.14102569 -0.04903067 0.08449104 -0.27324334
0003f0 67 a7 00 3c 30 60 81 be fc 27 7e be b4 d3 22 3c
       0.007852412 -0.25268698 -0.2481994 0.009938169

linear_stack.0.bias f4 [16]
000000 4f 69 57 3d b4 25 e4 3e d0 da 3b bf fb 3b ef bf
       0.052590664 0.44560015 -0.73380756 -1.869018
000010 90 36 0e bf 49 2b fa bf 1e 49 13 c0 27 85 aa bf
       -0.55552006 -1.954446 -2.3013377 -1.3321885
000020 f8 2a a1 bd 0f f4 05 bf bf e0 a5 bf e2 40 74 be
       -0.07869524 -0.5232553 -1.2959212 -0.23852876
000030 fd 57 08 c0 c3 6e 33 c0 68 4c d2 3d e3 6a 36 c0
       -2.1303704 -2.8036354 0.102684796 -2.8502738

linear_stack.3.weight f4 [8, 16]
000000 00 97 20 3d 92 22 66 3d 2b 6e ac 3b 48 29 90 3a
       0.039206505 0.056185313 0.0052621565 0.0010998631
000010 f2 dd 71 3c b5 ad 5a bf d7 0c 39 3d e5 29 0e 3d
       0.014762389 -0.85421306 0.04517826 0.034707922
000020 b3 fb 39 3d b9 72 52 3d 9d 3b d3 be 27 f2 c1 3c
       0.045406055 0.05137894 -0.4125642 0.023675038
000030 83 42 41 be d0 75 31 bf ec 1a 63 3d c0 1a 47 bf
       -0.18873028 -0.6932039 0.055445597 -0.7777519
000040 78 39 31 3d b6 ea 46 3c f8 d4 dd 3d bb 34 19 3d
       0.043267697 0.01214092 0.10831636 0.037403803
000050 38 de 8d 3d 21 fa 16 bd ce 51 33 3e a0 ba 41 3d
       0.069271505 -0.036859635 0.17511675 0.04729712
000060 32 6c 9a 3d 6c 70 a8 3d 6a 50 d0 bd 15 0a b2 3d
       0.07540168 0.08224568 -0.10171588 0.08693329
000070 a6 03 b4 bd 9f 6c fd bd 0e 24 e7 3d 17 6b 20 be
       -0.087897584 -0.123742335 0.11286174 -0.15665852
000080 ad 94 f8 3c 90 93 7b 3d 22 e5 c1 3c a7 f2 06 3e
       0.030344332 0.061420023 0.02366883 0.13178502
000090 83 e7 1f 3d 0b a1 88 bd 3d fe 39 3d 37 b2 c9 3d
       0.039039146 -0.066713415 0.045408476 0.09848445
0000a0 57 59 bb 3c 99 05 8f 3d 16 d8 c2 bd 94 20 97 3d
       0.022869749 0.069834895 -0.09513871 0.07379261
0000b0 b5 0d c2 bd cf f5 ef bd 29 ae 3d 3d a6 97 a4 be
       -0.09475271 -0.11716806 0.04630867 -0.3214695
0000c0 bb e9 31 bc 48 95 b6 3c a8 57 90 3d 25 24 80 3d
       -0.010858948 0.02228798 0.07047969 0.06256894
0000d0 5b 62 6f 3c b9 a4 a2 bf 38 2e 8a 3d 87 61 6b 3c
       0.014610852 -1.2706519 0.06747097 0.014366514
0000e0 58 1a 13 3d 76 46 8d 3d 3b 8a e6 be f9 a2 2b 3d
       0.035913795 0.06898205 -0.45027336 0.04190347
0000f0 b2 78 f9 bf 95 27 e7 bf 5f f3 5f 3d b6 93 7b c0
       -1.9489958 -1.8058954 0.054675456 -3.9308906
000100 79 cb 97 3d c2 78 4e bc 43 d8 ba 3d 98 bf 50 bc
       0.07411856 -0.012602033 0.0912328 -0.012740992
000110 c2 e1 1f 3d 34 65 2c be ab 77 7f 3d 23 a8 7c b9
       0.03903366 -0.16835481 0.062369984 -0.00024095229
000120 6b 25 5e 3d ce 07 7f 3d c8 5c 1f be d8 da 93 3d
       0.054234903 0.062263303 -0.15562737 0.072194755
000130 81 70 64 be 60 43 6d be f7 20 59 3d a2 da 12 bf
       -0.22308542 -0.23170233 0.053009953 -0.5736486
000140 00 fd 76 bf 37 56 24 bf 65 67 61 bf b7 27 ad bf
       -0.964798 -0.64194053 -0.8804839 -1.3527745
000150 5d b0 13 bf f7 30 62 3d f6 54 d2 bf 08 c7 ac bf
       -0.57690984 0.055222478 -1.6432178 -1.349824
000160 40 bd 90 bf bf cd 64 bf 77 c2 6b 3d fd f6 73 bf
       -1.1307755 -0.89376444 0.057558503 -0.9529875
000170 81 77 65 3d b2 fb eb 3d 6a b9 1d bf 05 f3 f7 3d
       0.05602217 0.115226164 -0.61611044 0.12106899
000180 66 c3 41 3d ab 57 23 3d 20 71 23 3d 7a bc 0b 3d
       0.047305487 0.03987853 0.039902806 0.034115292
000190 48 61 81 3d 56 61 7b c0 4e 0b 5f 3c df 53 50 bb
       0.06317383 -3.927816 0.013613535 -0.0031788272
0001a0 65 58 ad 3c ed 25 b6 3d de f4 ca be e9 09 72 3d
       0.021160314 0.088939525 -0.39639944 0.059091482
0001b0 26 ad b0 c0 81 ef b6 c0 5c de a8 3c ea 65 9f c0
       -5.5211363 -5.7167363 0.020613842 -4.9811907
0001c0 a0 9c f0 be ae 8e 33 bf a6 b0 09 bf ff a8 9d bf
       -0.46994495 -0.70139587 -0.5378517 -1.2317199
0001d0 5a 11 27 bf b8 f4 2b 3d 7a d6 83 bf 03 6f 0a bf
       -0.6526085 0.04198143 -1.0299828 -0.5407564
0001e0 f3 53 3d bf 60 30 eb be e3 4f 5e 3d ba a4 07 bf
       -0.7395622 -0.45935345 0.054275405 -0.5298573
0001f0 d4 b5 b0 3d 14 ce b0 3d 86 da ca be d2 00 ba 3d
       0.08628431 0.08633056 -0.39619845 0.09082188

linear_stack.3.bias f4 [8]
000000 7f 87 fa 3e de 23 a3 3e f4 ea c9 3e bf 1c 0a 3f
       0.489315 0.31863302 0.39437068 0.53950113
000010 33 0c cb 3e 06 64 0b 3f 90 c4 ea 3e 72 2a 1d 3f
       0.39657745 0.544495 0.4585309 0.6139289

linear_stack.6.weight f4 [3, 8]
000000 31 10 12 be 3c dc 17 be 6d c3 85 bb db c3 96 be
       -0.14263989 -0.14830106 -0.0040821345 -0.294463
000010 4b ec a0 bd a2 b8 0f 3d fa 5b 39 3d 04 b4 46 3d
       -0.07857569 0.03508819 0.04525373 0.04851152
000020 52 0e 7a be 21 f8 87 be d0 c0 f1 bd 29 02 b5 be
       -0.24419525 -0.26556495 -0.11804354 -0.3535321
000030 5e 1a 21 be 70 65 26 3e 2d ac b7 bc 64 04 42 3e
       -0.15732715 0.16249633 -0.022420967 0.18946987
000040 a1 5a ce bd fe 05 0f be 4e 6c b3 3c f6 aa 59 be
       -0.1007588 -0.1396713 0.02190223 -0.21256623
000050 81 47 a2 bc 31 5c ac bd 66 04 fd 3d 09 92 50 bd
       -0.019809486 -0.084160216 0.123543546 -0.05092052

linear_stack.6.bias f4 [3]
000000 8c ed 10 bb b0 58 36 3e bd 78 c7 bd
       -0.0022114245 0.17807269 -0.09739826
