models/model_c2_p[0.01, 0.01]_y5_w[1.0, 1.0]_b32_lr0.001_d0.5.pth (torch, 4581 bytes, 6 tensors)

linear_stack.0.weight f4 [16, 22]
000000 f9 17 de 3b 43 fc 7b 3d 6a 0d fd bd 15 6b ae 3c
       0.00677776 0.061519872 -0.12356074 0.021291295
000010 b4 b2 09 be dc 34 e1 bc 6d 53 0d 3e 27 7c b6 3d
       -0.13447076 -0.027491026 0.13801356 0.08910399
000020 ed e8 ce bd 1a fc 72 bd 28 79 7d 3e b9 c7 db 3c
       -0.10103021 -0.059322454 0.24753249 0.026828634
000030 f7 c6 35 be 3a ec c6 3d 72 42 14 3f 83 86 96 3d
       -0.1775168 0.097130254 0.5791389 0.07349875
000040 86 fd 66 3d 03 d7 00 be ad 5f 07 bf f5 ea a4 3e
       0.056394123 -0.1258202 -0.52880365 0.32210508
000050 4c 16 7c 3e 4d b1 c7 be 7e cc 29 be 67 94 0e be
       0.2461788 -0.39002457 -0.16581914 -0.13923799
000060 87 43 cf 3c fc 66 d9 3d 56 00 ea 3d a7 8a 1c 3c
       0.025300754 0.10615346 0.11425845 0.009554542
000070 f7 bf 2b be 1e 57 73 be 39 3e 21 3d 07 12 a8 3e
       -0.16772448 -0.23763701 0.03936598 0.32826254
000080 9d 88 d8 bc 17 7f 90 bd 36 6c 84 3d 6d 69 17 bd
       -0.02643233 -0.070554905 0.06465952 -0.036965776
000090 91 49 26 bf 69 5f 90 bb fb b5 93 be 69 b6 5a 3e
       -0.64956003 -0.004405905 -0.28849778 0.21358646
0000a0 ba ab 57 3e 78 03 29 be 6c bd 37 bd f6 24 fb bd
       0.21061602 -0.1650523 -0.04485838 -0.12262909
0000b0 6f 66 1f 3e f6 a8 cd bc 6f 82 a7 bd a2 d8 36 be
       0.15566419 -0.02510498 -0.08179175 -0.17856076
0000c0 04 f0 1b be 38 e2 36 bd 56 b9 53 3e 95 1a d4 bd
       -0.15228277 -0.044649333 0.20676169 -0.103566326
0000d0 b3 84 d4 3d bc 6e 3d 3d 5e a9 fd 3d 09 d0 aa 3d
       0.10376873 0.046248183 0.1238582 0.08340461
0000e0 e3 df ef be a8 b3 44 3e 0a d7 e6 3e 32 49 5b 3e
       -0.468505 0.19209158 0.45085937 0.2141464
0000f0 01 ba c3 bd a0 8f 85 bd 1f 27 03 bf 10 8b c8 3e
       -0.09556962 -0.06521535 -0.5123157 0.39168596
000100 42 12 0b bc 1b fa 50 3b 19 8a 91 3e e2 c1 05 3e
       -0.00848824 0.0031887356 0.28425673 0.13062242
000110 7b 86 55 bf 13 71 d4 3c 96 71 b8 3d ee 47 76 bc
       -0.83408326 0.025932824 0.0900604 -0.015031798
000120 7a c7 33 3e 32 93 69 3e a0 74 5f be e5 5f 98 be
       0.17556563 0.22810057 -0.21821833 -0.29760662
000130 62 96 0f 3e cb 96 76 3e 05 62 7a bd 95 25 74 be
       0.1402221 0.2408096 -0.061128635 -0.23842461
000140 7f 19 b1 3e 69 55 99 3d 0f 4a 8e bc fa 61 7a be
       0.34589764 0.07486994 -0.017369298 -0.24451438
000150 20 df a6 bd a8 9d c0 bc de d9 cf 3d 5d 11 11 bf
       -0.081480265 -0.023512676 0.10148977 -0.5666712
000160 cc f3 89 be 33 9d c2 3e 40 de 4f ba eb c0 d7 bd
       -0.26943815 0.38010558 -0.0007929541 -0.10534843
000170 27 e1 60 bd a9 0b a9 bd 61 28 b7 be bc 2f 18 bd
       -0.054902222 -0.08254177 -0.35772994 -0.037154898
000180 0e 76 25 be 9c 24 30 bd 72 12 91 3e ce 4b a4 3d
       -0.16158316 -0.043003663 0.28334385 0.08022271
000190 00 df 0d 3e cd bb ca 3d 2e 60 a7 3e ee f4 de 3e
       0.13854599 0.098991014 0.32690567 0.43546242
0001a0 7a 6e c0 bd f8 78 5e be f5 2e dd bd 98 ee 75 3e
       -0.09396072 -0.21725833 -0.10799972 0.24016798
0001b0 c4 31 38 3e 0d d2 ba be 13 4f 66 be 13 7d bc 3e
       0.17987734 -0.3648838 -0.22491102 0.36814174
0001c0 40 3f 2c bd c7 05 76 be 7b ca 9f bd bc d3 06 3a
       -0.042052507 -0.24025641 -0.07802292 0.0005143245
0001d0 07 df f8 bd 52 35 39 be 9e 76 16 3c 3b 74 d4 3c
       -0.12151914 -0.18086746 0.009183554 0.02593433
0001e0 d8 c9 7e 3d ff af a3 3c 57 5b 02 be d1 21 b6 3d
       0.062204212 0.019981382 -0.12730156 0.08893169
0001f0 b9 63 ef 3e 2f f1 c8 3e 35 ac 00 be 1f b3 86 be
       0.4675577 0.39246508 -0.12565692 -0.26308534
000200 4e 96 a6 bd ba 34 71 3e 6f c3 9b 3d 32 f8 ab be
       -0.08134137 0.2355527 0.076056354 -0.33587795
000210 28 62 16 be 3c a4 dc 3e 11 77 50 bd 42 9d 1d 3e
       -0.14685881 0.4309405 -0.0508948 0.1539202
000220 00 3e 0a 3e 1e 5d 20 be 3b 13 8d be c5 e6 f5 3c
       0.13500214 -0.15660521 -0.27553734 0.030017266
000230 82 df 03 be d9 e9 bd 3e f4 eb b3 3d 46 b6 41 bc
       -0.1287823 0.37092474 0.08785239 -0.0118232425
000240 fc 87 bb 3d 83 1d 81 be 6f 07 e1 3d b9 02 e6 3d
       0.09156796 -0.25217828 0.10987746 0.11230988
000250 75 b7 9c be 66 98 ce bd 74 94 f2 3e 28 fd 21 be
       -0.30608717 -0.100876614 0.47378886 -0.15819228
000260 ee 45 97 bd b1 77 ff be 80 75 5f be 47 ad 0e 3e
       -0.07386385 -0.49896005 -0.21822166 0.13933288
000270 1c 67 a2 bd c9 4c 59 3e d0 4c c5 bd df e3 21 be
       -0.07929823 0.21220697 -0.096337914 -0.15809582
000280 d0 35 a8 be c5 85 c7 bd e3 57 f0 bd 0b 08 d8 3d
       -0.32853556 -0.097423114 -0.11735513 0.10548409
000290 e0 c6 9b 3e 27 4b 8f 3d db c5 e3 3c f3 df 53 3d
       0.30425167 0.06996756 0.027804306 0.051727246
0002a0 e6 29 a4 3e 08 2e 97 3e c9 45 26 bd c8 5c 92 be
       0.32063216 0.29527307 -0.040593896 -0.2858641
0002b0 43 23 a3 be 60 36 d5 3e e9 44 04 3e 9a 30 ab be
       -0.3186284 0.41643047 0.12916912 -0.33435518
0002c0 46 eb f4 3d 18 3d 95 3e 2b 44 1d bf 31 93 c9 bd
       0.11958937 0.29148173 -0.6143214 -0.09842528
0002d0 1c 8b 32 3e 0a e6 de bc 0a fc 69 3e bd 59 17 3d
       0.17435879 -0.0272093 0.22850052 0.036950815
0002e0 dd e3 33 3d 5b 08 00 bf 0b 82 9d 3e e5 4f 72 3e
       0.04391848 -0.5001275 0.30763277 0.2366329
0002f0 b1 a6 14 bd fc 25 ab be 5a 27 d0 3e 87 ff 12 3e
       -0.03629178 -0.33427417 0.40655023 0.14355288
000300 f1 cb 4d be 11 7a ab be de 19 0c 3d b3 e8 30 bb
       -0.20097329 -0.33491567 0.034204356 -0.0026994168
000310 30 3b 3a bb 2b 7a 8d be 58 e6 7c bc 61 c2 61 3e
       -0.0028416626 -0.2763227 -0.015435778 0.22046806
000320 ac bb e9 bc 8e 72 54 3c 8d ed 95 bd 93 c0 26 bc
       -0.028531872 0.012966765 -0.073207 -0.010177749
000330 06 85 a7 be 8e f3 10 3b fc 00 3a bc e2 49 6f 3e
       -0.32718676 0.0022117826 -0.011352774 0.23368028
000340 e7 81 c4 bd 58 c7 8f bd 80 ac f4 3d 46 bf 94 be
       -0.095950894 -0.07020444 0.11946964 -0.2905218
000350 db ba a4 be 59 12 98 3e 9b 7f 18 bf 78 bc a3 bd
       -0.3217381 0.29701498 -0.5956971 -0.07994932
000360 31 ac 67 3e 5a fc 70 bd 88 13 75 bd 9f 33 00 bf
       0.2262428 -0.05883441 -0.05983308 -0.5007877
000370 d8 46 9b 3d 45 49 96 bd 69 38 d9 be 29 49 91 bd
       0.07581872 -0.07338194 -0.4242585 -0.07094032
000380 43 0c 0a 3e c9 2c 05 be 5f 34 94 3e 3e ad df 3d
       0.1348124 -0.13005365 0.28946206 0.10921715
000390 c3 6f f7 bc 48 5e a6 be 05 06 7f be eb 20 73 3d
       -0.03020466 -0.32493806 -0.2490464 0.059357565
0003a0 8a ef 0f 3d 36 ab 9f 3d 13 35 2c be a0 a2 9a be
       0.03514055 0.07796328 -0.16817121 -0.30202198
0003b0 6f 19 53 3e 0b 5f 90 bd 0d e7 b3 be 4e 46 43 bf
       0.20615171 -0.07049378 -0.35137215 -0.7627915
0003c0 20 51 b2 3d ba 5d 91 3d d8 7a e5 bc d0 d1 51 3e
       0.087068796 0.07097955 -0.028012678 0.20490193
0003d0 e8 c7 24 3e 81 8e 65 be 86 54 75 bd 88 7b 1a be
       0.16091883 -0.22417642 -0.05989506 -0.15086186
0003e0 bb 12 19 be 95 ed d2 be 85 10 87 3e 9d 7b 6f 3e
       -0.14948551 -0.41196886 0.2637979 0.23386998
0003f0 89 c0 48 bd c9 d0 19 bd b5 2a 04 bf b5 e1 06 bc
       -0.04901174 -0.03755263 -0.51627666 -0.008232524

linear_stack.0.bias f4 [16]
000000 b6 bb 1e bf e6 66 4f bf 6f f7 4f bf ce 2a 87 bf
       -0.62005174 -0.81016386 -0.8123693 -1.0559938
000010 91 ec 28 bf b0 cf fc be c0 41 cb be 9b c8 0f bf
       -0.6598597 -0.49377203 -0.396986 -0.56165475
000020 be 68 64 bf 81 7f 39 bf ff c2 dd bd 7e 47 4c bf
       -0.89222324 -0.7246018 -0.10828208 -0.7979659
000030 dc fc 6d bf 5b c0 47 bf ea 4c 2f bf eb 4a 86 bf
       -0.9296396 -0.78027886 -0.68476737 -1.0491613

linear_stack.3.weight f4 [8, 16]
000000 d3 a3 3e 3e 05 18 2a 3e 1c 3f 89 3e 3a 90 35 3f
       0.18617181 0.16610725 0.2680596 0.709232
000010 35 15 7d 3d ed ab 82 3d 32 5b 80 3d 0d a7 d7 3b
       0.061787803 0.063804485 0.06267394 0.0065811933
000020 7c f2 bc 3e 4a 96 02 3e 62 66 10 be b2 e8 68 3e
       0.3690375 0.12752643 -0.14101556 0.22745016
000030 46 62 78 bf c5 2c dd 3e 92 fc f3 3d fe 47 71 bf
       -0.97024953 0.4319822 0.11913408 -0.94250476
000040 2a 92 69 3e 8e 5a 34 3e fc e0 b5 3e d7 58 49 3f
       0.22809663 0.17612669 0.35523212 0.78651184
000050 e1 55 90 3d 48 f3 36 3c 85 68 fb 3c e8 d8 30 3d
       0.0704763 0.011166401 0.030689487 0.043175608
000060 b5 c5 b5 3e 89 9c 38 3e 88 a9 35 be 3d 0d 4d 3e
       0.355024 0.18028463 -0.17740452 0.20024581
000070 a9 c6 65 bf c5 b7 dd 3e bd e0 26 3e 21 bd 94 bf
       -0.89756256 0.43304268 0.16296668 -1.1620218
000080 7d ac 1c 3e b3 0f f6 3d 40 30 65 3e cb a0 4d 3f
       0.15300174 0.12014713 0.22381687 0.80323476
000090 23 95 3f 3d 30 83 59 3d b3 12 17 3b f4 88 85 3d
       0.046773087 0.053103626 0.0023051917 0.06520262
0000a0 b9 b0 e2 3e c8 9f a6 3d f0 78 78 be 73 81 3d 3e
       0.44275454 0.081359446 -0.24264884 0.18506412
0000b0 22 6d 66 bf ce b5 e9 3e 51 60 28 3e be 96 8d bf
       -0.90010273 0.45646518 0.16442992 -1.1061628
0000c0 cf 1c 3f 3e 19 69 65 3e 7c 8b 8f 3e 60 a5 3e 3f
       0.18663333 0.22403373 0.28036106 0.7447109
0000d0 92 31 2b 3d a8 50 4b 3d 5a c1 fa 3c d0 47 b3 3d
       0.04179532 0.049637467 0.030609775 0.087539315
0000e0 fa a9 ca 3e 18 b0 0a 3e 24 dd df bd f3 28 61 3e
       0.39582807 0.13543737 -0.10930851 0.21988277
0000f0 2b 89 79 bf 02 86 e3 3e 89 3a 2c 3e 52 26 94 bf
       -0.97474927 0.44438177 0.16819204 -1.1574194
000100 50 fc 92 bf 98 98 2e bf 7b 19 4d bf 8f d6 dd be
       -1.148325 -0.6820159 -0.80117005 -0.43327758
000110 b1 2f 42 bf 34 19 2b bf 95 83 61 bf c6 92 6e bf
       -0.7585402 -0.6683533 -0.88091403 -0.9319271
000120 96 44 79 bf 66 9d 01 bf c8 65 9b 3d 6c 02 31 bf
       -0.9737028 -0.50630796 0.075877726 -0.6914432
000130 cd 24 4f 3e 51 a1 e7 be 18 5f f5 be 89 62 1b 3f
       0.20228882 -0.45240262 -0.47924113 0.6069723
000140 07 03 80 3e 8d a2 1f 3e 5e f6 9a 3e c8 78 3e 3f
       0.2500231 0.15589352 0.30266088 0.7440305
000150 57 7f c8 3c 24 cc f0 3d 2c 30 03 3c 22 8b 4f 3d
       0.024474783 0.11757687 0.008007091 0.050669797
000160 9b ae ab 3e 28 ce 3c 3e 8f bd 31 be c8 e1 65 3e
       0.3353165 0.18438017 -0.17357467 0.2244941
000170 a7 bc 7d bf c3 e5 f9 3e cc 0a 53 3e 1a 25 95 bf
       -0.99115986 0.48808107 0.20609587 -1.1651947
000180 4c f5 67 bf 04 46 14 bf 0f 44 5b bf ac 85 ab be
       -0.9060867 -0.57919335 -0.85650724 -0.3350042
000190 7c 7e 6a bf 42 f3 1c bf 9a 89 84 bf 44 6b 66 bf
       -0.9159925 -0.6130868 -1.0354493 -0.90007424
0001a0 17 e9 76 bf 4e 4c 0f bf 51 fe a7 3d e5 30 42 bf
       -0.96449417 -0.55975807 0.08202804 -0.7585586
0001b0 43 53 70 3e d0 60 1a bf 75 3a f8 be db a0 35 3f
       0.23469262 -0.60303974 -0.484821 0.7094857
0001c0 54 94 2a 3e a8 01 0e 3e 58 01 99 3e 29 4c 3f 3f
       0.16658145 0.1386782 0.29883838 0.74725586
0001d0 88 85 53 3d 08 b0 5c 3d 03 c6 b2 3d e6 04 08 bb
       0.051641017 0.053878814 0.08729174 -0.0020754873
0001e0 b2 c4 a9 3e aa 88 fa 3d bb 36 04 be 34 f4 59 3e
       0.3315788 0.12233098 -0.12911503 0.21284562
0001f0 66 d4 5c bf 30 93 db 3e 19 73 1f 3e ce 5c 84 bf
       -0.86261594 0.42885733 0.1557125 -1.0340822

linear_stack.3.bias f4 [8]
000000 fa f0 5e 3d 50 08 a4 3d 38 fe 1a 3e 6e c0 6f 3d
       0.054429032 0.08009398 0.1513604 0.058533125
000010 e7 ed 3d 3e f8 90 23 3d 21 8e 46 3e 98 d9 65 3d
       0.18547784 0.039933175 0.19390155 0.056115717

linear_stack.6.weight f4 [2, 8]
000000 af 43 6d be 8e aa 71 be 1c 1f 41 be ff f7 cb be
       -0.2317035 -0.23600218 -0.18859524 -0.39837644
000010 f0 84 2b 3f 4a cd 45 3e be 7f 3c 3f 66 71 12 3e
       0.6699972 0.19316593 0.7363242 0.1430107
000020 26 a5 81 bd b7 84 4d bc 9f c9 8f 3d f0 16 30 be
       -0.06330328 -0.012543849 0.07020878 -0.1719625
000030 22 79 84 bf ba f3 c2 3e 0e c5 59 bf db bb aa 3e
       -1.0349467 0.38076574 -0.85066307 0.33346447

linear_stack.6.bias f4 [2]
000000 09 6d bf bd bd e0 80 be
       -0.09346969 -0.25171462
