models/model_c2_y1_p[[0.0, 0.1], [0.9, 1.0]]_b32_lr0.001_d0.5_e500.pth (torch, 4581 bytes, 6 tensors)

linear_stack.0.weight f4 [16, 22]
0	0x3ed6629a	0.41872102
1	0x3f14e737	0.58165306
2	0xbdaa8874	-0.083268076
3	0xbe4166b9	-0.18886842
4	0xbe805949	-0.2506812
5	0x3e929c18	0.28634715
6	0x3eceebaa	0.40414172
7	0x3e8f0df5	0.27940336
8	0x3cb33589	0.021876113
9	0xbca88bb6	-0.020574432
10	0x3e29887b	0.1655597
11	0xbee2ff2e	-0.44335312
12	0x3dd4f7ab	0.103988014
13	0x3e007cc3	0.12547593
14	0x3f0e6ab8	0.5563159
15	0x3f068c8b	0.525582
16	0x3eb4e7f5	0.3533322
17	0xbe90f676	-0.28313035
18	0xbe9e1a83	-0.30879602
19	0xbed26089	-0.41089275
20	0xbd3659cc	-0.04451923
21	0xbe250e9f	-0.16118859
22	0x3ebf60c9	0.3737853
23	0xbe258382	-0.16163447
24	0x3e6354c5	0.22200306
25	0xbc4ddccd	-0.01256485
26	0x3e3ebd33	0.18626861
27	0x3f00580d	0.50134355
28	0x3e654982	0.22391322
29	0xbe3154dc	-0.17317528
30	0xbd89cf39	-0.06728978
31	0x3ebf52cf	0.37367865
32	0xbd307958	-0.043084472
33	0xbd8e5a6e	-0.06950842
34	0x3da824a0	0.08210111
35	0x3e7220db	0.23645346
36	0xbf60d908	-0.87831163
37	0xbe897de9	-0.26853874
38	0x3ea6bc99	0.32565764
39	0xbdb8c93a	-0.09022756
40	0x3e70a91c	0.2350201
41	0xbe611f20	-0.2198453
42	0xbea3f9fc	-0.3202666
43	0x3e9ac310	0.30226946
44	0xbec87846	-0.3915426
45	0x3d25652e	0.040379696
46	0xbf800665	-1.0001951
47	0xbc899be4	-0.016797967
48	0xbd652bd2	-0.055949993
49	0x3d0219a6	0.03176274
50	0x3e7928be	0.24331948
51	0x3ee19ac0	0.44063377
52	0xbefe7d43	-0.49704942
53	0xbe2c8d0c	-0.1685068
54	0x3d741b2e	0.059596233
55	0xbe2b86ba	-0.16750613
56	0xbed01b17	-0.40645668
57	0x3dbcefdd	0.09225438
58	0x3f14bc21	0.5809956
59	0x3ec15ee1	0.377677
60	0x3e36cdb7	0.17851911
61	0xbf060b5c	-0.52361083
62	0xbdc08f1a	-0.094022945
63	0xbdf5d24e	-0.12003003
64	0x3e8f93c5	0.28042427
65	0xbdc1d277	-0.09463971
66	0x3ea817d1	0.3283067
67	0x3e7657f3	0.24056987
68	0xbeefb8e9	-0.46820763
69	0xbf9a6d81	-1.2064668
70	0x3db1fb90	0.0869056
71	0xbd6138df	-0.054985877
72	0x3ebee162	0.37281328
73	0x3c297d66	0.010344839
74	0xbbd6deac	-0.0065573063
75	0x3d856a98	0.06514472
76	0x3e0c68da	0.13711873
77	0x3d68c4fd	0.056828488
78	0xbe777204	-0.24164587
79	0xbdd17a54	-0.1022841
80	0x3e5ea774	0.21743566
81	0x3f22c9e5	0.63589317
82	0x3e2d7afb	0.16941445
83	0xbeed046e	-0.46292442
84	0x3e50f5d4	0.20406276
85	0xbe78bebc	-0.2429151
86	0xbe1de9e0	-0.15421247
87	0xbdac4821	-0.08412195
88	0x3d0d90e0	0.03456199
89	0xbe8200a5	-0.25391117
90	0xbdc83922	-0.09776522
91	0x3da2c5a9	0.07947857
92	0xbecbcceb	-0.39804778
93	0xbe2c455c	-0.16823334
94	0xbd33fa7c	-0.043940052
95	0xbedadeb4	-0.42748034
96	0xbc95eade	-0.01830047
97	0xbedd3510	-0.43204546
98	0xbf0809c1	-0.53139883
99	0x3f99817a	1.1992638
100	0x3dc9b6d8	0.09849328
101	0x3db35c7c	0.08757874
102	0xbe9eebbc	-0.31039226
103	0x3e04b35e	0.12959048
104	0x3e1b3315	0.15156205
105	0xbee95b36	-0.455774
106	0xbf02333e	-0.5085944
107	0x3e93487a	0.28766233
108	0xbee3839f	-0.44436356
109	0x3e78c74a	0.24294773
110	0xbdf321d9	-0.1187169
111	0x3d3d10fb	0.046158772
112	0xbe44d6e9	-0.19222607
113	0x3dcbc453	0.09949555
114	0xbd9a2c0b	-0.07527932
115	0xbe9bbd2e	-0.3041777
116	0xbef6d5df	-0.48210046
117	0xbe7b4216	-0.24536929
118	0x3d91dfa2	0.07122733
119	0xbe628037	-0.22119223
120	0xbe0fe499	-0.14052047
121	0xbf553583	-0.8328478
122	0x3e439287	0.19098864
123	0xbdcc734e	-0.0998293
124	0x3eb6cd57	0.35703537
125	0x3e2abd59	0.16673793
126	0x3ea0272a	0.3127988
127	0xbead584d	-0.3385643
128	0xbec17db6	-0.37791222
129	0xbec1baaa	-0.37837726
130	0x3e16cb7e	0.14726064
131	0xbe12c803	-0.14334111
132	0xbe367fac	-0.1782214
133	0x3eea8e6b	0.4581178
134	0xbe38af0a	-0.18035522
135	0xbe0922c8	-0.13392174
136	0xb9d93216	-0.00041426782
137	0x3f04bb8a	0.5184866
138	0x3ed1f464	0.41006768
139	0x3e8a8ad2	0.27059036
140	0xbe819ae8	-0.25313497
141	0xbd3f6fd1	-0.046737496
142	0x3e392a7f	0.18082617
143	0xbecd8172	-0.4013782
144	0x3eabd14d	0.3355812
145	0x3a22c217	0.0006208731
146	0x3ee8ecf8	0.45493293
147	0x3e318421	0.1733556
148	0x3f1b713c	0.60719657
149	0xbe8db521	-0.27677253
150	0xbefaac7d	-0.48959723
151	0xbe62f3de	-0.2216334
152	0x3d944049	0.07238824
153	0xbdcf496e	-0.101214275
154	0x3f06b657	0.5262198
155	0x3e40459d	0.18776555
156	0xbeb36c10	-0.35043383
157	0xbdb3f6d0	-0.0878731
158	0xbe247e35	-0.16063769
159	0x3e5fce56	0.21856055
160	0x3f0adb14	0.54240537
161	0x3e3037b8	0.17208755
162	0x3dccd08b	0.10000714
163	0xbe402f7e	-0.18768117
164	0x3e1736b0	0.14766955
165	0x3d838984	0.064227134
166	0x3f246d73	0.64229506
167	0xbd9335a7	-0.07187968
168	0xbeb40324	-0.35158646
169	0x3f42377b	0.75865906
170	0x3dfac31b	0.12244245
171	0xbebd1921	-0.36933234
172	0xbe52f88d	-0.20602627
173	0xbe8b920f	-0.2725987
174	0xbf0aa11f	-0.541521
175	0x3d4069d4	0.046975926
176	0x3e972e8e	0.29527706
177	0x3da1fa8d	0.07909117
178	0x3ebf8934	0.37409365
179	0xbdc12425	-0.09430722
180	0xbda75968	-0.0817135
181	0xbe378e0a	-0.17925277
182	0xbf2fabab	-0.6862132
183	0xbaa30c35	-0.0012439551
184	0x3e1c072a	0.15237108
185	0xbe885638	-0.2662828
186	0xbf537150	-0.82594776
187	0x3e7f819a	0.24951783
188	0xbec6cac2	-0.38826567
189	0x3ecc76f1	0.39934495
190	0x3e1a7b10	0.15086007
191	0xbf18a472	-0.59625924
192	0xbe1634b7	-0.14668547
193	0x3e6c12ba	0.23054019
194	0xbf29d01e	-0.66333187
195	0x3e8193a0	0.2530794
196	0xbe326dab	-0.17424648
197	0x3cce37cb	0.025173089
198	0xbbabca0f	-0.005242593
199	0x3cd64c9b	0.026159575
200	0xbf90e95c	-1.1321216
201	0xbf25ef38	-0.64818144
202	0xbd0a9965	-0.033837695
203	0x3d250198	0.040284723
204	0x3e8cb5d2	0.27482468
205	0x3e2ba5a7	0.1676241
206	0xbea6cf75	-0.32580152
207	0xbe5e2743	-0.21694665
208	0x3dfb28b1	0.12263621
209	0xbe6d1b66	-0.23154983
210	0xbe92e48f	-0.2869
211	0x3d20a886	0.039223216
212	0x3ee442e9	0.44582298
213	0x3f04f589	0.51937157
214	0x3de2667f	0.11054706
215	0xbeb94445	-0.36184898
216	0xbd9328b5	-0.071854986
217	0xbe1ccc62	-0.15312341
218	0x3ea1c5ad	0.31596127
219	0xbe00a897	-0.12564312
220	0x3dff9e1b	0.12481328
221	0xbd4e9baf	-0.05044144
222	0x3dd35f77	0.10320943
223	0xbdf0d0da	-0.11758585
224	0xbd28a90e	-0.041176848
225	0x3dcfd23d	0.10147522
226	0xbd6abe88	-0.05731061
227	0x3dc55432	0.096351996
228	0xbe277ede	-0.1635699
229	0xbea78f8e	-0.3272671
230	0xbf3ecbe3	-0.74529856
231	0x3f275483	0.6536333
232	0xbe8a5295	-0.2701613
233	0x3e964765	0.29351345
234	0xbefc2b5b	-0.49251828
235	0x3e7870e0	0.24261808
236	0xbf095d57	-0.5365805
237	0x3e778b8e	0.2417433
238	0xbf58647b	-0.8452832
239	0xbf812432	-1.0089171
240	0x3d137f96	0.036010347
241	0x3e2a880c	0.1665346
242	0xbe1cc4e7	-0.15309487
243	0x3f1df2fe	0.616989
244	0xbe68f916	-0.22751269
245	0xbee92bf3	-0.45541343
246	0xbdf9a9d3	-0.121905945
247	0x3eed3156	0.46326703
248	0x3efe0f1a	0.49620897
249	0x3e47bd33	0.19505768
250	0x3ccc018f	0.024903087
251	0xbd5250c8	-0.05134657
252	0x3dfea990	0.12434685
253	0xbea6de45	-0.32591453
254	0xbe8837ec	-0.26605165
255	0x3e0de695	0.13857491

linear_stack.0.bias f4 [16]
0	0xbe95764e	-0.29191822
1	0xbfdc3111	-1.7202474
2	0xbf2bc8f2	-0.67103493
3	0xbf0ceeba	-0.5505177
4	0xbee5316a	-0.44764262
5	0xbf60fd4c	-0.878865
6	0xbea6c648	-0.32573152
7	0xbf1c7c46	-0.61127126
8	0xbf175605	-0.5911563
9	0xbef46269	-0.4773133
10	0xbf1c4dbc	-0.61056113
11	0xbe97e8c5	-0.29669777
12	0xbf3eaea8	-0.74485254
13	0xbf952bd5	-1.1654001
14	0xbeae0cac	-0.33994043
15	0xbf7b239d	-0.98101217

linear_stack.3.weight f4 [8, 16]
0	0x3d48b8b8	0.049004287
1	0x3f9dac78	1.2318258
2	0x3e3d5469	0.18489231
3	0x3cabb2fe	0.020959374
4	0xbfc191ef	-1.512266
5	0x3db9d492	0.09073748
6	0x3d570353	0.052493405
7	0x3d5d9f23	0.054106843
8	0xbf9da4eb	-1.2315954
9	0x3cc58133	0.024109459
10	0xbf72a5e6	-0.9478439
11	0xba9b5946	-0.0011852167
12	0xbf9c7473	-1.2223037
13	0x3e0219dc	0.12705177
14	0x3c975522	0.018473212
15	0xbf33311a	-0.699968
16	0xbc138c9b	-0.009005691
17	0x3fb904c8	1.4454584
18	0x3d8cee28	0.06881362
19	0xbd0c85ba	-0.03430722
20	0xbfc48d63	-1.5355648
21	0x3e2f486f	0.17117475
22	0x3d4b4089	0.049622092
23	0x3da2d224	0.079502374
24	0xbf73def0	-0.9526205
25	0x3de9ce15	0.1141626
26	0xbec7c1ac	-0.39014947
27	0x3c189af2	0.009314286
28	0xbf41e3eb	-0.757384
29	0x3e2fb872	0.17160204
30	0x3d07826b	0.03308336
31	0xbf255d8c	-0.64595866
32	0x3d5496b7	0.051901545
33	0x3f9238df	1.1423606
34	0x3df9e2dc	0.12201473
35	0x3d2d28c9	0.042275224
36	0xbfc9f803	-1.5778812
37	0x3db830a0	0.089936495
38	0x3dc45a59	0.09587545
39	0x3dd7c0f2	0.10534848
40	0xbf915c67	-1.1356324
41	0x3e04b3cd	0.12959214
42	0xbf31d59c	-0.6946657
43	0x3d2f92c5	0.04286458
44	0xbf87edd4	-1.0619454
45	0x3e2ab087	0.16668902
46	0x3dbb91ad	0.09158645
47	0xbf2d0abb	-0.675945
48	0x3c829859	0.015941786
49	0x3fc125cb	1.5089658
50	0x3da09973	0.07841768
51	0x3e0134e9	0.1261784
52	0xbfb59ddc	-1.41888
53	0x3d5f7ef8	0.054564446
54	0x3d697043	0.056991827
55	0x3d379329	0.044818077
56	0xbfa451ae	-1.2837427
57	0x3db07b2e	0.08617245
58	0xbf2f2654	-0.6841786
59	0x3d42c8db	0.047554832
60	0xbf696a7b	-0.911781
61	0x3dbb2550	0.09137976
62	0x3d09a74b	0.03360681
63	0xbf3a94e5	-0.72883445
64	0xbf7eac9d	-0.99482137
65	0xbf7649a6	-0.9620613
66	0xbf0f90a0	-0.56080055
67	0xbf477184	-0.77907586
68	0xbcc9cb06	-0.024632942
69	0xbf4bc21d	-0.7959307
70	0xbf2a7a77	-0.66593117
71	0xbf66b238	-0.9011569
72	0x3c9bdd1c	0.019026332
73	0xbf0e0b2d	-0.554858
74	0x3db1e683	0.08686545
75	0xbf18a5c2	-0.59627926
76	0x3dbc86ec	0.09205422
77	0xbf3c41b0	-0.7353773
78	0xbef01b83	-0.4689599
79	0x3ecc327a	0.3988226
80	0x3d4bd2e8	0.049761683
81	0x3fc95c7a	1.5731347
82	0x3dfd2cb7	0.12362044
83	0x3d2274e0	0.039662242
84	0xbf3a1169	-0.72682816
85	0x3d696dc9	0.056989465
86	0x3d12d03a	0.03584311
87	0x3d83057e	0.06397532
88	0xbf84005f	-1.0312613
89	0x3daab43e	0.0833516
90	0xbe7474d2	-0.23872688
91	0x3d7d45b3	0.06183405
92	0xbf60a090	-0.87745
93	0x3e076044	0.13220316
94	0x3d4c47cc	0.04987316
95	0xbf1bd7b0	-0.6087599
96	0xbf73282e	-0.94983184
97	0xbf53f876	-0.82800996
98	0xbf270a56	-0.65250146
99	0xbf4663c5	-0.77495986
100	0xbd290665	-0.041265864
101	0xbf57dd7e	-0.84322345
102	0xbf48719c	-0.78298354
103	0xbf46fa20	-0.7772541
104	0x3d461641	0.048361067
105	0xbf0de0c3	-0.55421084
106	0x3d6d2d23	0.057904374
107	0xbf26ab3f	-0.6510505
108	0x3dab24fa	0.08356662
109	0xbf474e6a	-0.77854025
110	0xbeed7f66	-0.4638626
111	0x3ecf6da8	0.4051335
112	0x3c696fae	0.014247818
113	0x3f9db73f	1.2321547
114	0x3df2fd4f	0.11864721
115	0x3c32b87f	0.010908245
116	0xbfc9cb57	-1.5765179
117	0x3de5c161	0.11218525
118	0x3db4ffaf	0.0883783
119	0x3c1fb10d	0.009746802
120	0xbf8327d8	-1.0246534
121	0x3d825ca7	0.06365328
122	0xbf8224c5	-1.0167471
123	0x3d8baf50	0.068205476
124	0xbf941216	-1.1568019
125	0x3e241e19	0.16027106
126	0x3d324f58	0.0435327
127	0xbf2e2ce8	-0.6803727

linear_stack.3.bias f4 [8]
0	0x3e938331	0.2881103
1	0x3e8ec56f	0.27885005
2	0x3e833549	0.2562659
3	0x3e826bc1	0.25472835
4	0x3ea44f70	0.32091856
5	0x3e74f726	0.23922405
6	0x3eaee6cf	0.34160468
7	0x3e9c079a	0.3047455

linear_stack.6.weight f4 [2, 8]
0	0xbe51be35	-0.20482714
1	0xbe5be8eb	-0.2147557
2	0xbe019743	-0.12655358
3	0xbeb68910	-0.35651445
4	0x3dfacc26	0.122459695
5	0x3e53a103	0.2066689
6	0x3e67a137	0.22620092
7	0x3e21bb78	0.1579417
8	0xbdb8b19a	-0.0901825
9	0xbd0a6b4a	-0.033793725
10	0x3c05b712	0.008161323
11	0xbe5af4f6	-0.21382508
12	0xbef99083	-0.48743066
13	0x3ebc0b35	0.367273
14	0xbeae5ac7	-0.34053633
15	0x3ea31680	0.31853104

linear_stack.6.bias f4 [2]
0	0xbdc9261c	-0.09821722
1	0xbe7ce4d4	-0.24696666
