models/model_c2_b32_lr0.001_d0.5.pth (torch, 4581 bytes, 6 tensors)

linear_stack.0.weight f4 [16, 22]
000000 00 04 93 bd 3e bf 0a be 90 b9 50 3d 71 fe 13 bf
       -0.07178497 -0.13549516 0.050958216 -0.5781012
000010 11 a7 bc 3c 24 bb eb bd 68 28 54 3d 26 54 e2 be
       0.023028882 -0.115103036 0.051796347 -0.44204825
000020 68 a0 0e 3e ca 47 51 be 66 83 d8 bd 3f 41 52 be
       0.13928378 -0.20437542 -0.10571937 -0.20532702
000030 8c ed 31 be 31 5c 71 be f7 4f 22 3f 92 15 76 3e
       -0.17375773 -0.23570324 0.63403267 0.24031666
000040 75 9c 2a 3e 48 e8 de 3d ff 99 2f 3f f8 be 39 bf
       0.16661246 0.10884148 0.68594354 -0.7255702
000050 9c 03 f6 3e 11 0f 6e bf 74 ce 4d 3e 70 56 c5 3e
       0.4804963 -0.9299174 0.20098287 0.3854251
000060 36 d7 0b 3e ae c6 d0 3d e9 df 0c 3e 07 b9 14 3f
       0.13656315 0.10194145 0.1375729 0.5809483
000070 8c a0 14 3e 71 fc 2f 3e e4 39 17 bf d0 2e 0a 3f
       0.14514369 0.17186143 -0.5907271 0.5397768
000080 ce 90 2b 3f 38 91 20 3d 23 7a f0 be 2c 3c 24 3d
       0.6701783 0.03920099 -0.46968183 0.040096447
000090 2a a0 23 bf 1f 4c 17 3d c7 48 92 3c 59 68 c7 be
       -0.63916266 0.03693783 0.017856969 -0.38946798
0000a0 3c 37 dd 3e 3a f0 80 3e 6c 65 d1 bc fc 5f a2 bb
       0.43206203 0.25183278 -0.025561057 -0.00495529
0000b0 a3 c8 9a bd 86 e0 95 3e 28 71 80 3e f8 1f 13 bf
       -0.075578 0.2927286 0.2508633 -0.57470655
0000c0 26 8d 0e 3e a8 fa 85 be 06 c1 6d bf e0 9f 51 3c
       0.13921031 -0.26167798 -0.92872655 0.012794465
0000d0 00 13 d3 3d b9 a7 ec 3e a8 ae e0 bd 91 fb 2f be
       0.10306358 0.46221712 -0.10970813 -0.17185809
0000e0 d2 5a 33 bf d2 2d a9 3e 4f 3b d7 3e 5d c5 91 be
       -0.70060456 0.3304277 0.42037436 -0.2847089
0000f0 47 99 a5 3e b2 08 34 3e 45 4c 9b be 31 ae 0b 3f
       0.32343504 0.17581442 -0.30331627 0.5456267
000100 71 81 33 be 54 df b5 3e 66 95 fd 3e aa fc 26 bf
       -0.17529847 0.35521948 0.49528044 -0.65229285
000110 19 4b 1d bf 04 da a1 3e 5b bf 9d 3e 88 08 d2 bd
       -0.61442715 0.31611645 0.30810055 -0.102555335
000120 32 40 01 3f ab dd 4b 3d 34 39 b1 be 2c 27 a7 3d
       0.5048858 0.049771946 -0.34613955 0.08161768
000130 6e b9 3b bd cc fa 42 3e e7 3c d4 be 48 14 33 3e
       -0.045831136 0.19040984 -0.41452715 0.17488205
000140 80 f1 08 bd ec f7 0c 3f 67 09 2a 3e e2 05 2b bf
       -0.033433437 0.550658 0.16605149 -0.6680585
000150 de 01 1a 3f 94 13 3a be 83 f2 9e 3e 09 2c 8a be
       0.601591 -0.18171531 0.31044397 -0.2698672
000160 af d6 9d bb ab 36 80 3e 4c b6 ab be 80 5a 07 3e
       -0.004816852 0.25041708 -0.3353752 0.13218117
000170 f0 3d 1b be 1e 0a 13 bf 7c 49 1e be 1c d5 fe 3d
       -0.15160346 -0.5743731 -0.1545772 0.12442991
000180 3b 8e 1f be 4a 8b 68 be 44 83 46 3c 78 2c a8 3d
       -0.155816 -0.22709385 0.012116257 0.08211607
000190 d4 67 4d 3c 85 bb bc bd 7d 51 b3 3f 65 a6 04 3f
       0.012536962 -0.09215454 1.4009243 0.518164
0001a0 5a d7 07 3e db e5 b0 be 76 f5 03 bf 7a 58 c6 3e
       0.13265744 -0.34550366 -0.5154642 0.38739377
0001b0 ae 11 e9 3c ba 47 fc be 86 3d b3 3d 86 97 8d 3e
       0.028450813 -0.49273473 0.08751969 0.27654666
0001c0 4a bf 6b be c5 bb da 3d 92 f8 08 be 57 b9 3e bf
       -0.2302219 0.106803454 -0.13376072 -0.74501556
0001d0 c9 19 ad 3c fd d7 8a be 8e 7a 57 3e 03 7e 4c bd
       0.02113046 -0.2711791 0.21042845 -0.04992486
0001e0 55 d4 de bd e7 eb 70 be b2 32 eb be 30 fc b1 3d
       -0.10880343 -0.2352749 -0.45937115 0.08690679
0001f0 78 f2 87 3f c1 f6 89 3e 7a 9e 75 3e 64 9c 29 be
       1.062087 0.2694607 0.23986235 -0.16563565
000200 64 b9 74 bf 97 6f 24 3f 69 f2 bd 3e 69 b7 d9 be
       -0.95595384 0.6423277 0.37099007 -0.42522743
000210 34 5d cc bd 82 d2 8d 3e 72 7d d0 bd 1e 35 1b 3e
       -0.099787146 0.27699667 -0.10180177 0.15156981
000220 10 40 b9 bd 09 12 8f bd 48 bc 1a bd bc 71 1a 3e
       -0.09045422 -0.06985862 -0.037777215 0.15082449
000230 35 6e 1e be 33 05 34 3e 03 3b e8 bd 9f 94 fc bd
       -0.15471728 0.17580108 -0.113393806 -0.12333035
000240 e6 7a 9e be 6f 9d 27 be 72 39 bd 3f 11 c9 61 3f
       -0.3095314 -0.1636865 1.4783156 0.8819743
000250 50 06 d8 bd 22 f4 dc be be 3c 65 be f7 76 3a 3d
       -0.10548079 -0.4315501 -0.22386453 0.04552361
000260 b3 66 9b 3d 41 be ee be 01 dc 31 be 04 12 ef 3d
       0.07587948 -0.46629527 -0.17369081 0.11673358
000270 27 99 8f 3e e1 6c 81 3e 99 5c 38 3d 2b 68 3b 3e
       0.28046533 0.2527838 0.045010183 0.18301456
000280 94 22 dd be 23 6e aa 3d 70 7f 9d be 86 11 09 3f
       -0.43190444 0.08321788 -0.3076129 0.53542364
000290 a1 9f 8d 3d a3 1c 26 be f0 c5 7b bc 33 8e 8a bd
       0.069152124 -0.16221862 -0.015367016 -0.067654036
0002a0 9e fc 6b bf 97 54 15 3e df ac 87 bd cc ed 12 be
       -0.9218234 0.1458305 -0.066247694 -0.14348525
0002b0 02 66 ec 3e d2 7a f8 be 9b 47 e3 3d 95 4b e6 be
       0.46171576 -0.48531204 0.11097642 -0.4497954
0002c0 f1 25 23 bc 8f e5 ba 3e d5 74 a8 be 94 63 52 bd
       -0.009957776 0.36503264 -0.32901636 -0.051364496
0002d0 87 fc 91 bd 7d 12 4b bb ea 41 29 be 1a 39 3d 3d
       -0.07128244 -0.0030986362 -0.1652905 0.046197034
0002e0 a9 f8 af bd 43 27 6a 3e c8 0b 05 be 39 21 95 3d
       -0.0859235 0.2286654 -0.12992775 0.07281727
0002f0 ba fd c8 be e3 f1 46 bd 96 f4 a0 3f 9b 3e 07 3f
       -0.39256078 -0.048570525 1.2574642 0.52829903
000300 2f 41 4a 3d 5d 05 08 bf 61 1b 46 bf 24 d3 b8 3e
       0.04937857 -0.53133184 -0.77385527 0.36098588
000310 b4 7b 89 3e 5d 24 d3 be 72 94 21 be 9d 0f c5 3e
       0.2685219 -0.4123868 -0.15779284 0.38488474
000320 82 eb 12 bd 14 c8 2b bf 7e c2 c8 3d 45 84 6b bd
       -0.03586913 -0.6710217 0.098027214 -0.05749919
000330 30 18 0f bf 66 80 ed bd b5 2b fd bb 68 b6 b9 3e
       -0.5589628 -0.11596756 -0.0077261575 0.36271977
000340 4c 4c ad bd ea d5 a0 be c5 57 20 3e 02 3d 5c be
       -0.08461818 -0.31413203 0.15658481 -0.21507648
000350 93 e0 91 3e 46 5a 5d 3f 69 63 5d 3d 4e 4f 8d bf
       0.2849165 0.8646587 0.054049883 -1.1039827
000360 d5 97 9c 3e 7a 88 96 be 10 93 d8 3d 48 d6 5e 3d
       0.3058459 -0.29400998 0.10574925 0.054403573
000370 b6 b9 c3 3e fc 6a 0b bd 67 9f a4 bc a1 47 37 be
       0.38227624 -0.034037575 -0.02009554 -0.17898418
000380 f1 72 36 3d 2f 51 08 be 90 29 a6 3d 68 22 4d 3d
       0.04454321 -0.13312219 0.08113396 0.05008164
000390 69 14 3e 3d f9 5c 69 be eb 87 0f 3d 8b 31 a5 3e
       0.046406183 -0.22789373 0.03504173 0.3226436
0003a0 57 2b 8d 3d 32 7c a9 3e 65 e9 0f bf 2d 79 ca be
       0.06893032 0.33102566 -0.56215507 -0.39545575
0003b0 05 8d ee 3d 94 7e 5a 3d 72 47 3c bd b7 3c 01 c0
       0.11647991 0.05334337 -0.045966573 -2.0193307
0003c0 14 38 15 be b2 a4 c3 3e 75 b0 bc bd 55 f8 d4 3d
       -0.14572173 0.3821159 -0.09213344 0.10398928
0003d0 6c f8 18 be a7 a2 f6 be 3e e2 76 3d 1a 41 b5 3d
       -0.14938515 -0.4817097 0.060274355 0.08850308
0003e0 fa 02 49 3e 86 2b 3e be d9 fc c9 3c 1b bc e6 bd
       0.19630042 -0.1857129 0.0246567 -0.11266347
0003f0 8f 0d e2 bd b9 60 31 3d 14 39 1e bf 7b 6e c7 3d
       -0.11037742 0.043305133 -0.61805844 0.09737869

linear_stack.0.bias f4 [16]
000000 b0 be c2 bf 17 43 84 bf 7c cc 8d bf bb d1 c0 bf
       -1.5214443 -1.0332974 -1.1078029 -1.5064005
000010 2c 97 1c bf ad e4 5a bf 9e 45 e9 be 1d d2 c8 bf
       -0.6116817 -0.8550518 -0.45560926 -1.5689121
000020 f4 1b 16 bf dd a3 74 bf d5 f9 30 bf 6f fe 84 bf
       -0.58636403 -0.95562536 -0.69131213 -1.0390147
000030 55 cd d9 bf 77 92 17 bf 73 0b 49 bf 8b db b8 bf
       -1.7015787 -0.5920786 -0.78533095 -1.4441999

linear_stack.3.weight f4 [8, 16]
000000 fe 9d a2 3e 4a 82 86 3c bb a6 19 3e 8c 76 e8 3e
       0.31761163 0.016419549 0.15005009 0.45402944
000010 03 44 2c 3d 9a 3a d9 3d 74 05 d3 3d 73 97 60 3e
       0.04205705 0.106068805 0.103037745 0.21932773
000020 07 74 73 3d e0 89 1f 3e 7e aa 66 bf f9 f2 b3 3e
       0.059436824 0.15579939 -0.901039 0.3514631
000030 b5 02 15 be ea 03 c4 bc 2d 75 a9 3d 72 6f 7d 3e
       -0.14551814 -0.023927648 0.08274303 0.24749544
000040 b4 ce be 3e 59 68 17 3c 3e b2 f8 3d 60 c4 bc 3e
       0.37267077 0.009241187 0.12143372 0.36868572
000050 bb cd 38 3d ac e8 96 3d 4e 49 d0 3d b8 6c 7c 3e
       0.045118075 0.073685974 0.10170232 0.24650848
000060 54 11 de 3d 8d 4e 1e 3e 68 35 9f be 23 c2 b8 3e
       0.10843149 0.15459652 -0.31095433 0.36085615
000070 72 30 5c bd 6d b0 2b 3c d3 53 a8 3d 7a da 78 3e
       -0.05375714 0.010479075 0.08219113 0.24302092
000080 2c 5e 00 3f 96 23 10 bc d8 db 35 3e 3b b4 a6 3e
       0.50143695 -0.008797547 0.17759645 0.3255938
000090 5b de aa ba d1 68 a3 3d af fa 67 3d 25 f8 3d 3e
       -0.0013036238 0.079789765 0.056635555 0.18551691
0000a0 87 2e 06 3e 23 a0 b2 3d 02 2e 98 bf 5b 94 a1 3e
       0.13103686 0.0872195 -1.188904 0.315585
0000b0 3a fe e0 bd d9 c8 40 3d 9a 75 77 3d 16 47 40 3e
       -0.1098599 0.047066543 0.060414888 0.18777117
0000c0 22 4c ed 3e 25 44 19 3d d3 29 56 3e 64 6f c8 3e
       0.46347147 0.037418503 0.20914392 0.39147484
0000d0 21 bf 93 3c 1a 67 0e 3e f7 d1 fc 3c 5a a3 a0 3e
       0.018035473 0.13906518 0.030861838 0.31374627
0000e0 c2 8f 05 3d ab f5 a2 3d 7f 9e bb bf c4 93 ae 3e
       0.0326078 0.07957014 -1.4657744 0.3409711
0000f0 d8 37 9d bd 72 92 29 3c 42 af 99 3d c5 41 ae 3d
       -0.07676667 0.010349857 0.07504131 0.08508638
000100 ed 81 c6 be 81 d9 95 bf 62 38 f6 be d7 92 a4 bf
       -0.38771 -1.1707002 -0.48089892 -1.2857312
000110 2c 8f 20 bf fd 0e 4b bf 24 66 06 bf 42 44 34 bf
       -0.6271846 -0.79319745 -0.52499604 -0.70416653
000120 44 67 be be 67 b7 3f be 43 7f e9 3d 82 aa 11 bf
       -0.3718816 -0.18722306 0.11401226 -0.569008
000130 7f ba c7 3e 2f e0 0c bf 0a 32 a7 be da 5e 0b bf
       0.39009473 -0.55029577 -0.32655364 -0.54441607
000140 05 25 d6 3e c9 58 eb bc 8f 2b 16 3e f9 8f f5 3e
       0.4182512 -0.02872886 0.14665054 0.47961405
000150 7d c6 ed 3d 34 3e f8 3d df 8d 8f 3d 0c eb 65 3e
       0.11610124 0.12121239 0.07009482 0.22452945
000160 d7 37 62 3d 00 50 20 3e ef 51 95 bf 50 fa da 3e
       0.055229034 0.15655518 -1.1665629 0.42769098
000170 b7 4d c5 bd 44 6b b6 3c 19 d3 cb 3c 96 46 aa 3d
       -0.096339636 0.022267945 0.024880933 0.083142444
000180 21 dd 43 be 8f a0 8e bf 9b a9 0f bf 07 15 2d bf
       -0.19127323 -1.1142749 -0.5611817 -0.6761021
000190 09 59 67 bf 57 3b 86 bf c4 5a 3c bf 84 cd 41 bf
       -0.9037023 -1.0486859 -0.73576 -0.75704217
0001a0 60 19 d4 be 96 3e b9 be ef 73 f7 3d 8b 93 8b be
       -0.4142561 -0.36180562 0.120826595 -0.27261004
0001b0 37 30 b6 3e 28 1e 0d bf dc f6 ff be 9c 9a 2f bf
       0.3558366 -0.5512414 -0.49993026 -0.6859529
0001c0 36 80 d5 3e 60 c4 82 ba d5 84 11 3e 68 b8 de 3e
       0.4169938 -0.0009976737 0.14210828 0.43500066
0001d0 51 51 94 3d d3 5f 3e 3d b0 69 7e 3d 5b 52 8f 3e
       0.072420724 0.046478104 0.06211251 0.2799252
0001e0 3e 0b 99 3d e7 ff ea 3d d3 cf 4f bf 5b 51 b5 3e
       0.074728474 0.11474591 -0.8117649 0.35413632
0001f0 9e ea fb bd f4 18 a2 3c b4 5f d6 3d 70 a1 90 3e
       -0.12300609 0.01978729 0.10467473 0.28248167

linear_stack.3.bias f4 [8]
000000 7a a0 9c 3c 62 5a 6a 3c 4d 4b 4e 3b ec f6 33 3d
       0.01911949 0.0143037755 0.0031477988 0.043936655
000010 b9 53 a8 3e 35 e5 a6 3c 0f 37 9e 3e fb 92 5a 3b
       0.32876375 0.020372966 0.3090138 0.0033351767

linear_stack.6.weight f4 [2, 8]
000000 f3 8c 40 be 04 c9 28 be ac 86 ac bd d8 35 a5 be
       -0.18803768 -0.16482931 -0.08424124 -0.32267642
000010 84 49 16 3e 5d 4f 72 3e 85 0a 8d 3e 49 2f 42 3e
       0.14676481 0.23663087 0.27547088 0.1896335
000020 3b 17 db bd ee 76 ab bd 82 de 0b bd 7e 9b 7d be
       -0.1069779 -0.083722934 -0.034147747 -0.24766347
000030 b3 ff 02 bf d1 b2 ac 3e 3f 95 c7 be b4 dc 92 3e
       -0.51171416 0.33730176 -0.38981053 0.28684008

linear_stack.6.bias f4 [2]
000000 00 29 0e be 36 4e 53 be
       -0.13882828 -0.20635304
