models/model_c2_p[[0.0, 0.3], [0.7, 1.0]]_b32_lr0.001_d0.5_e500.pth (torch, 4581 bytes, 6 tensors)

linear_stack.0.weight f4 [16, 22]
-0.39151832 -0.25970277 0.18617032 -1.0980954 -0.24805681 0.27551633 0.26178566 -0.10796772
0.07815938 0.5672068 -0.7609696 -0.37548473 -0.36002243 -0.20173544 2.1247385 1.0355388
0.9347395 -0.6665594 -0.53202724 0.09848076 1.2417759 -1.1449574 0.51050925 -0.13321385
-0.44420132 -0.1491219 -0.26145595 -0.09037656 0.03425169 0.016039068 0.36702275 -1.4346241
1.4567052 0.2751973 0.11866985 0.053439464 0.10304648 -3.7228248 1.0294528 0.06587157
0.16336933 0.011205774 -0.030474253 -0.3910896 -0.1704984 0.23214406 -0.46003458 -1.038086
0.059995096 -0.23717223 -0.64318895 0.0138830375 0.0440616 0.35458788 -0.35449252 -0.47115153
-0.42019993 -0.012816931 1.4212519 2.4266987 -0.050827976 -1.3803691 -0.036558345 -0.15096763
0.16971785 -0.40897372 0.16517846 0.40064645 0.11142732 0.24385287 0.13173401 -0.83692724
-0.08125627 -0.17009819 -0.101429574 0.97924185 -0.19118927 -0.7332878 -1.1194185 0.17650464
0.35331535 0.2949222 1.424877 -0.8753864 1.7526182 -2.1192799 0.6701503 -0.9136258
0.17078716 -0.8199657 -0.14763854 0.05175909 -0.1145326 0.12924017 0.30855018 -0.04123799
0.16759768 -0.77306485 2.0722373 0.1279525 0.40657207 0.18807006 -0.6949627 -3.0599773
0.3639871 1.000844 -0.2864515 -0.20372288 -0.14547226 -0.19122984 -0.008343866 0.5461063
-0.42258194 -0.16311051 -0.14678566 -0.74446356 -0.70654094 -0.12924676 -0.008028516 0.72503346
-0.55088264 0.18875352 -0.34200928 0.0041644047 1.6016154 0.3167169 -0.29511333 0.31038737
-3.4072132 1.4052386 0.45794174 -0.33389986 0.17608579 0.538805 -0.73837507 0.007691379
-0.16316217 -1.728645 0.21994291 0.03093575 -0.38850677 0.6897896 -0.88248795 -0.29428542
-0.49531758 -0.48512098 1.3936114 1.4669812 0.29318294 -0.6889688 0.3077741 -1.0807209
0.731847 -1.1204779 -0.12149494 0.34901506 -0.20992742 -1.2196901 -0.028583243 -0.11199215
-0.34089983 0.42903343 -0.19805613 0.2275934 -0.3547486 -0.41487342 -0.6326078 -0.07915899
1.4321908 2.7751563 -1.1999394 -0.5799183 0.22756939 -0.52957124 0.26229942 -0.36221045
-0.20457366 0.32983062 0.17074698 -1.1555675 -0.09174034 0.2322582 0.30576658 0.2629238
-0.010397701 0.5787425 -0.7575525 -0.19621772 -0.5347308 -0.038047902 2.463121 0.71483773
0.50528973 -0.025024803 -1.8184695 0.43030873 0.70320344 -0.83280385 -0.14468838 0.36909187
0.28817528 -0.20154487 0.07817699 0.08993518 -1.476078 0.058231175 -0.28997615 0.4156946
-0.09023783 -0.5794248 -0.36079246 -0.22192223 0.20022619 1.4634687 1.2085859 -1.4507245
1.2194018 -1.6502794 0.48296916 -0.6441296 0.15482733 0.0201614 0.0052717174 -0.08907548
-0.15778059 0.041742194 -0.0015811049 0.23402275 -0.48639578 -1.1755798 0.6257931 0.46060297
-0.03939231 -0.1117937 0.1607132 0.2160476 -0.20052306 0.102999814 1.1401478 -4.593009
-0.02049987 0.09769081 0.75394106 -1.5521779 -0.73029345 0.62773377 0.20509689 -0.34064418
0.5514299 -0.12600696 -0.25500348 0.35390007 -0.3206324 -0.19374947 -1.1998084 -0.27161285
00000000: 1775 c8be c3f7 84be 6fa3 3e3e 648e 8cbf
00000010: 9b02 7ebe 7a10 8d3e c508 863e 2e1e ddbd
00000020: 0612 a03d 7734 113f e7ce 42bf 893f c0be
00000030: dc54 b8be bc93 4ebe b7fb 0740 898c 843f
00000040: 164b 6f3f a3a3 2abf f032 08bf 48b0 c93d
00000050: 83f2 9e3f f78d 92bf bcb0 023f 3669 08be
00000060: 5b6e e3be 69b3 18be 8edd 85be 5917 b9bd
00000070: 804b 0c3d 5d64 833c 68ea bb3e c3a1 b7bf
00000080: 5175 ba3f a9e6 8c3e 2e09 f33d 57e3 5a3d
00000090: 080a d33d c342 6ec0 1cc5 833f ace7 863d
000000a0: 4a4a 273e 6c98 373c 24a5 f9bc e53c c8be
000000b0: 2297 2ebe 2cb7 6d3e a789 ebbe 01e0 84bf
000000c0: 6bbd 753d 47dd 72be 08a8 24bf ae75 633c
000000d0: f079 343d 8b8c b53e 0b80 b5be c63a f1be
000000e0: 7224 d7be 1bfe 51bc 95eb b53f 084f 1b40
000000f0: ff30 50bd efaf b0bf 34be 15bd 4297 1abe
00000100: 84ca 2d3e 0165 d1be 8b24 293e 8821 cd3e
00000110: 0234 e43d 91b4 793e 48e5 063e dd40 56bf
00000120: b069 a6bd 382e 2ebe 4fba cfbd 98af 7a3f
00000130: 1fc7 43be c0b8 3bbf 1b49 8fbf a2bd 343e
00000140: c0e5 b43e 0b00 973e 5f62 b63f 5319 60bf
00000150: cb55 e03f 48a2 07c0 f88e 2b3f 61e3 69bf
00000160: d4e2 2e3e 46e9 51bf 8f2e 17be 5701 543d
00000170: 1190 eabd 8957 043e 4afa 9d3e 2be9 28bd
00000180: ba9e 2b3e 94e7 45bf 899f 0440 fb05 033e
00000190: 372a d03e 7095 403e 13e9 31bf abd6 43c0
000001a0: 845c ba3e a81b 803f c5a9 92be bb9c 50be
000001b0: aef6 14be c1d1 43be b6b4 08bc 9fcd 0b3f
000001c0: a95c d8be 7106 27be fb4e 16be 2a95 3ebf
000001d0: dedf 34bf 4359 04be 098a 03bc cb9b 393f
000001e0: a506 0dbf 9a48 413e d71b afbe 8f75 883b
000001f0: bc01 cd3f b828 a23e 1819 97be 18eb 9e3e
00000200: c80f 5ac0 dcde b33f 5777 ea3e ecf4 aabe
00000210: d54f 343e 20ef 093f 2606 3dbf f707 fc3b
00000220: fc13 27be 3d44 ddbf b738 613e f86c fd3c
00000230: 5cea c6be 0d96 303f bbea 61bf 94ac 96be
00000240: 449a fdbe c761 f8be dc61 b23f 0ac6 bb3f
00000250: 131c 963e 4260 30bf 9194 9d3e 1055 8abf
00000260: 535a 3b3f d26b 8fbf 57d2 f8bd 1ab2 b23e
00000270: 37f7 56be ce1e 9cbf 6827 eabc 245c e5bd
00000280: 6c8a aebe 45aa db3e 3acf 4abe 3f0e 693e
00000290: 9ca1 b5be 4a6a d4be 96f2 21bf 1c1e a2bd
000002a0: 0752 b73f 299c 3140 9d97 99bf 8775 14bf
000002b0: f307 693e fb91 07bf 1c4c 863e a673 b9be
000002c0: c27b 51be 8fdf a83e 4cd8 2e3e a3e9 93bf
000002d0: 5ce2 bbbd 18d5 6d3e 708d 9c3e f39d 863e
000002e0: 1e5b 2abc 7828 143f f6ee 41bf 4ced 48be
000002f0: 1ee4 08bf 1ed8 1bbd c6a3 1d40 9bff 363f
00000300: ab5a 013f d100 cdbc 9cc3 e8bf 6d51 dc3e
00000310: 2405 343f a232 55bf 3129 14be 9cf9 bc3e
00000320: b68b 933e c761 4ebe 421b a03d f02f b83d
00000330: 20f0 bcbf d083 6e3d c177 94be ecd5 d43e
00000340: 9dce b8bd 2f55 14bf cab9 b8be 953f 63be
00000350: 1808 4d3e f152 bb3f f1b2 9a3f 57b1 b9bf
00000360: 5c15 9c3f 5b3c d3bf bc47 f73e ade5 24bf
00000370: 0e8b 1e3e 8529 a53c 5fbe ac3b 356d b6bd
00000380: 3c91 21be ddf9 2a3d 143d cfba a9a3 6f3e
00000390: de08 f9be 6679 96bf fa33 203f 27d4 eb3e
000003a0: d559 21bd 18f4 e4bd 0092 243e 953b 5d3e
000003b0: eb55 4dbe 91f1 d23d 5df0 913f eef9 92c0
000003c0: 58ef a7bc 1f12 c83d 4802 413f c4ad c6bf
000003d0: 83f4 3abf 29b3 203f eb04 523e ea68 aebe
000003e0: 832a 0d3f f807 01be d18f 82be 6432 b53e
000003f0: ee29 a4be 4366 46be 5293 99bf d710 8bbe

linear_stack.0.bias f4 [16]
-1.0749485 -1.4218266 -0.33922827 -1.6281842 -0.94088894 -1.7268252 -1.0703181 -0.6413271
-1.3753628 -0.8011561 -3.5386553 -2.8240368 -1.3758577 -2.5787425 -3.0464263 -2.550123
00000000: ea97 89bf 6afe b5bf 54af adbe 5768 d0bf
00000010: 19de 70bf 9c08 ddbf 2f00 89bf 032e 24bf
00000020: e30b b0bf 9118 4dbf 5479 62c0 05bd 34c0
00000030: 1b1c b0bf 1e0a 25c0 a6f8 42c0 3735 23c0

linear_stack.3.weight f4 [8, 16]
-0.42115408 0.13454928 -0.10057155 -0.2984865 0.09104781 -0.40198407 -0.55110407 -0.39816424
-0.7343996 -0.16877209 1.7349193 -0.23754567 0.11382539 -0.44933325 -1.0317689 0.15498285
0.039697826 -0.17015527 0.06176864 0.04426084 -0.07800049 0.09373798 0.035421703 0.05064661
0.0008001743 0.05015724 -0.32378322 0.1233648 -0.26519033 0.1467235 0.22996332 -0.17216448
0.08893295 -0.1987977 0.025045162 0.0743243 -0.14535151 0.074461356 0.03748392 0.04926176
0.050282918 0.08122908 -0.43365338 0.080422916 -0.5337045 0.08850172 0.20426144 -0.15156406
0.09933813 -0.28784096 0.07475882 0.064678766 -0.21757315 0.04215438 0.09082834 0.012348639
0.018250568 0.030397028 -0.43811628 0.14238957 -0.23604874 0.053801224 0.3411431 -0.2983303
-0.9480694 0.11654099 -0.13135768 -0.4379832 0.083717264 -0.5160322 -0.62292445 -0.35636613
-0.43910196 -0.29893675 1.4042947 -0.5007508 0.07055692 -0.37953046 -0.6846847 0.08484155
-0.32747105 0.090857305 -0.21196172 -0.16318654 0.06801858 -0.2551423 -0.14242984 -0.34747508
-0.23255008 -0.2513873 1.692885 -0.38909757 0.09640025 -0.38162416 -0.59174913 0.14035068
-0.32770017 0.014393308 -0.32402658 -0.14638197 0.032758627 -0.44763696 -0.10877227 -0.3985449
-0.26826406 -0.25070637 1.5268396 -0.39163387 0.1074556 -0.2993288 -0.94739443 0.14910223
0.072455786 -0.14581989 0.07724487 0.04803016 -0.10927055 0.09179432 0.05331715 0.06296263
0.08130924 -0.053188883 -0.44709688 0.15397717 -0.2739787 -0.0012852105 0.1422633 -0.15351292
00000000: 82a1 d7be 49c7 093e 75f8 cdbd 39d3 98be
00000010: 4677 ba3d dbd0 cdbe 2815 0dbf 2fdc cbbe
00000020: 9d01 3cbf 97d2 2cbe d611 de3f 2c3f 73be
00000030: 491d e93d 020f e6be 0111 84bf d3b3 1e3e
00000040: 309a 223d 2f3d 2ebe 1d01 7d3d db4a 353d
00000050: b9be 9fbd b3f9 bf3d 5916 113d d272 4f3d
00000060: cac2 513a ae71 4d3d eac6 a5be afa6 fc3d
00000070: 07c7 87be af3e 163e 817b 6b3e e34b 30be
00000080: 7a22 b63d a091 4bbe 832b cd3c 5737 983d
00000090: 07d7 14be 327f 983d bd88 193d b3c6 493d
000000a0: 76f5 4d3d 6f5b a63d d107 debe c5b4 a43d
000000b0: dca0 08bf 6440 b53d e929 513e 9c33 1bbe
000000c0: ca71 cb3d e45f 93be 271b 993d 4d76 843d
000000d0: 7fcb 5ebe 12aa 2c3d 3504 ba3d f251 4a3c
000000e0: 3782 953c 3003 f93c c750 e0be 92ce 113e
000000f0: c3b6 71be ac5e 5c3d 4faa ae3e c0be 98be
00000100: adb4 72bf 0bad ee3d a182 06be 563f e0be
00000110: f573 ab3d b01a 04bf fa77 1fbf 9f75 b6be
00000120: f9d1 e0be 3d0e 99be eebf b33f 3431 00bf
00000130: 2580 903d d151 c2be 7f47 2fbf 68c1 ad3d
00000140: 49aa a7be 6513 ba3d 7e0c 59be 5f1a 27be
00000150: 534d 8b3d 03a2 82be 21d9 11be 41e8 b1be
00000160: 9c21 6ebe d6b5 80be 75b0 d83f cc37 c7be
00000170: 7f6d c53d 3e64 c3be df7c 17bf 17b8 0f3e
00000180: 51c8 a7be e9d1 6b3c d0e6 a5be 28e5 15be
00000190: e92d 063d ac30 e5be ffc3 debd 140e ccbe
000001a0: e859 89be 965c 80be 7b6f c33f 3c84 c8be
000001b0: ae11 dc3d a041 99be 7188 72bf 41ae 183e
000001c0: b363 943d cf51 15be 8f32 9e3d 46bb 443d
000001d0: 3dc9 dfbd a9fe bb3d 1563 5a3d 8df2 803d
000001e0: 7585 a63d 96dc 59bd e2e9 e4be 31ac 1d3e
000001f0: f046 8cbe 8274 a8ba 78ad 113e 7e32 1dbe

linear_stack.3.bias f4 [8]
0.3815879 0.06418245 0.07656931 0.064151116 0.40429386 0.42768216 0.3975399 0.06307174
00000000: 7d5f c33e 1772 833d 5fd0 9c3d a961 833d
00000010: 9bff ce3e 28f9 da3e 5a8a cb3e c22b 813d

linear_stack.6.weight f4 [2, 8]
-0.065679 -0.15564749 -0.08823928 -0.32167733 -0.11439505 0.35061982 -0.0106420545 0.20517354
-0.22933729 -0.09290352 -0.030149637 -0.24868785 -0.250572 0.2233029 -0.10370575 0.27131608
00000000: b682 86bd 0e62 1fbe ccb6 b4bd e4b2 a4be
00000010: f447 eabd 7184 b33e 035c 2ebc 0319 523e
00000020: 65d7 6abe 3344 bebd 5ffc f6bc 07a8 7ebe
00000030: f94a 80be 84a9 643e ae63 d4bd f1e9 8a3e

linear_stack.6.bias f4 [2]
-0.19199274 -0.15320031
00000000: bf99 44be 8be0 1cbe
